Labs/2/problem3/neural-network-3-critic.pth (torch, 340200 bytes, 5 tensors)

weight f4 [400, 8]
0	0x3ab8c7ea	0.0014097665
1	0xbdb79248	-0.08963448
2	0x3f14bb34	0.5809815
3	0x3f23819a	0.6386963
4	0x3d1f49a3	0.038888585
5	0x3d60c285	0.05487301
6	0xbe7fa2e8	-0.24964488
7	0xbece74f2	-0.40323597
8	0x3e3e174a	0.18563572
9	0xbf024832	-0.5089141
10	0xbe2c7ecb	-0.16845243
11	0x3e5bde42	0.21471503
12	0xbe0a9a34	-0.13535386
13	0xbe2e0f88	-0.16998112
14	0xbf189a54	-0.59610486
15	0xbe4e5328	-0.20148909
16	0xbda2f1e6	-0.07956295
17	0xbd744b1a	-0.059641935
18	0xbe8d684a	-0.2761863
19	0xbd3388fc	-0.04383181
20	0x3e0653aa	0.13117853
21	0x3e6aa164	0.22913128
22	0xbdda6596	-0.10663907
23	0xbd9c43fc	-0.076301545
24	0x3d6515a2	0.055928834
25	0x3d2e9fd7	0.042632904
26	0xbd93e52e	-0.07221447
27	0xbf1f71b7	-0.6228289
28	0xbdd926b1	-0.10603083
29	0x3e5b92ae	0.21442673
30	0x3e62bbcb	0.2214195
31	0x3d812b06	0.06307034
32	0x3f11eef7	0.57005256
33	0xbcd99993	-0.026562488
34	0xbcb9d478	-0.02268432
35	0x3dedf4fe	0.11618994
36	0xbec81e6b	-0.39085707
37	0x3e0efe58	0.13964212
38	0x3d849166	0.06473045
39	0xbedf70ed	-0.43640843
40	0x3e45627a	0.19275847
41	0xbf391ccf	-0.72309583
42	0xbf321774	-0.69567037
43	0x3ee81d8a	0.45335037
44	0xbe231b79	-0.15928449
45	0xbe26c889	-0.16287436
46	0xbe121739	-0.14266671
47	0xbddb3be4	-0.107047826
48	0x3ea57242	0.32313734
49	0x3c6a5b7f	0.014304041
50	0x3e0283b5	0.12745555
51	0x3e6348fc	0.2219581
52	0xbe4784fb	-0.19484322
53	0xbefe7d43	-0.49704942
54	0xbde3d3dc	-0.11124393
55	0xbdc40722	-0.09571673
56	0xbe1d96b0	-0.15389514
57	0xbec16f6a	-0.37780315
58	0x3e6b7cb0	0.22996783
59	0x3f0c4f92	0.54808915
60	0xbf5f4a04	-0.87222314
61	0xbc72cb8f	-0.01481904
62	0x3d798f59	0.060927723
63	0x3dc5cf0b	0.09658631
64	0x3dbdbca7	0.09264498
65	0xbb89257f	-0.004185378
66	0x3e478ae5	0.19486578
67	0xbf01c113	-0.5068523
68	0x3da00f96	0.07815473
69	0xbe1cf987	-0.15329562
70	0x3e18d086	0.14923295
71	0x3db4011e	0.087892756
72	0xbe1f4869	-0.15554966
73	0xbeab76b9	-0.33489016
74	0xbe8591ab	-0.26087698
75	0x3d0255c1	0.031820063
76	0x3e1ea0e3	0.15491061
77	0x3f28f476	0.6599802
78	0xbd07d84e	-0.03316527
79	0xbe84be52	-0.25926453
80	0x3e9387cd	0.28814545
81	0xbda179db	-0.0788457
82	0x3d67d600	0.05660057
83	0xbc5297fd	-0.01285362
84	0xbe145406	-0.14485177
85	0xbf0187ca	-0.5059782
86	0xbf1329cc	-0.5748565
87	0xbeff7c78	-0.4989965
88	0xbe062edc	-0.13103813
89	0xbe4953e1	-0.19660904
90	0x3ce8a243	0.028397685
91	0xbe92d021	-0.28674415
92	0xbe97be8e	-0.2963757
93	0x3e11a01a	0.1422123
94	0x3df64520	0.12024903
95	0xbd4bf0a2	-0.049790032
96	0xbeab5539	-0.33463457
97	0xbe0ec590	-0.13942552
98	0x3f0317c2	0.51208127
99	0x3ee9b951	0.45649198
100	0xbf56539b	-0.8372132
101	0x3e016970	0.12637877
102	0x3e983814	0.29730284
103	0x3bca5c2f	0.00617554
104	0xbeaf377a	-0.34222013
105	0xbecf8e16	-0.4053809
106	0xbe1838cf	-0.14865421
107	0xbe5cd98e	-0.21567366
108	0x3eaa4493	0.33255443
109	0xbed079ce	-0.4071793
110	0x3d04e7be	0.03244757
111	0x3e674d57	0.22588097
112	0x3eebe755	0.4607493
113	0x3d1d4274	0.038393453
114	0xbf22a2d6	-0.6352972
115	0x3eb6e9ac	0.35725152
116	0x3e6dcbc7	0.23222266
117	0x3e83ba7d	0.25728217
118	0x3ebd78af	0.37006137
119	0xbd549e64	-0.051908866
120	0xbf050a82	-0.5196916
121	0xbdafa7c0	-0.08576918
122	0x3cf037a5	0.029323408
123	0x3f26c571	0.6514502
124	0x3ec38e27	0.3819439
125	0x3e7a657c	0.24452776
126	0x3e407d6f	0.18797849
127	0xbd32b853	-0.043632817
128	0xbe96816d	-0.2939562
129	0xbe2fea46	-0.17179212
130	0x3f15e72c	0.58555865
131	0x3e0b32cc	0.13593596
132	0xbf28a9f4	-0.6588433
133	0x3dd80f36	0.10549776
134	0xbdbd982a	-0.092575386
135	0x3db4b509	0.08823592
136	0xbd857fb7	-0.065185
137	0xbd67eb0c	-0.056620643
138	0x3e98080e	0.29693645
139	0x3e2f69ed	0.17130251
140	0x3c46a216	0.012123605
141	0xbe2bf4ee	-0.16792652
142	0x3dcb7531	0.09934462
143	0xbe41c92e	-0.189244
144	0xbbbac2dc	-0.0056994986
145	0xbf21d77a	-0.63219416
146	0x3bc80b4c	0.0061048623
147	0xbe0f62fc	-0.14002603
148	0xbcaeaac7	-0.021321667
149	0xbea30e32	-0.31846768
150	0xbf27acd7	-0.6549811
151	0xbdc57fff	-0.09643554
152	0xbdc3e0ff	-0.09564399
153	0x3db93c78	0.090447366
154	0xbe1633a9	-0.14668144
155	0xbdbda774	-0.09260455
156	0xbe615866	-0.22006378
157	0xbdff4646	-0.124645755
158	0xbe8fcccf	-0.28085944
159	0xbe21ee52	-0.15813568
160	0x3ed423c8	0.4143355
161	0x3e9bf13f	0.30457494
162	0xbdf4575f	-0.11930727
163	0x3f106c54	0.56415296
164	0xbe397574	-0.18111211
165	0xbea485a1	-0.321332
166	0xbef0fcd1	-0.47067884
167	0xbed9a65c	-0.42509735
168	0x3e49d60c	0.19710559
169	0xbe3da666	-0.18520507
170	0x3b8be203	0.004268886
171	0x3d285015	0.041091997
172	0xbe85dbd5	-0.2614428
173	0xbe693ca8	-0.22777045
174	0xbe90e09e	-0.2829637
175	0xbec710fb	-0.38880143
176	0xbd918253	-0.071049355
177	0x3d529e29	0.051420365
178	0x3eb39fdc	0.350829
179	0x3d97d929	0.07414467
180	0x3ec88338	0.39162612
181	0xbc93801b	-0.018005421
182	0xbdb59cb5	-0.0886778
183	0xbe46a072	-0.19397143
184	0xbec5fddb	-0.3867024
185	0xbf7664a6	-0.9624733
186	0x3f017656	0.5057119
187	0x3ed2bc1c	0.4115914
188	0xbf1b6dfe	-0.6071471
189	0xbcea5640	-0.02860558
190	0x3c018e3a	0.007907445
191	0xbdefc05b	-0.11706611
192	0xbe0b3475	-0.1359423
193	0x3e8de772	0.2771564
194	0x3c80b2ac	0.015710197
195	0x3d210a45	0.039316434
196	0x3b469861	0.0030303227
197	0xb93e77ac	-0.00018164393
198	0xbe7c4fa7	-0.2463976
199	0xbe7b5d0f	-0.24547218
200	0xbdcb7e0c	-0.09936151
201	0xbd31c27a	-0.043398358
202	0x3e238d1b	0.15971796
203	0xbcf2a0c7	-0.02961768
204	0xbec1efbb	-0.37878212
205	0x3eb1fbcb	0.34762415
206	0x3ddbe7a6	0.10737543
207	0x3ce8df7c	0.028426878
208	0x3ebabf9d	0.36474314
209	0xbe203d65	-0.1564842
210	0xbf222362	-0.6333524
211	0x3f061b70	0.52385616
212	0xbe8601d8	-0.26173282
213	0x3dbc0e5f	0.091824286
214	0x3cdbd325	0.02683408
215	0xbd0a4dc1	-0.03376556
216	0xbea3a735	-0.31963506
217	0xbe8ce48e	-0.27518123
218	0xbe487df9	-0.19579305
219	0x3db5438a	0.08850773
220	0x3dc4d422	0.096107736
221	0xbe35e42c	-0.17762822
222	0xbe49163f	-0.19637392
223	0xbe16f849	-0.14743151
224	0x3e1c9f56	0.15295157
225	0xbebcbd6e	-0.36863273
226	0x3e045edf	0.12926815
227	0xbe08c048	-0.133546
228	0x3e54213e	0.20715806
229	0x3e19f9e4	0.15036732
230	0xbdfd38ae	-0.123643264
231	0xbe3eb36c	-0.18623132
232	0x3e9a9677	0.3019292
233	0xbd4b66a6	-0.04965844
234	0xbef8f227	-0.48622248
235	0x3ead8f48	0.33898377
236	0x3df0aeed	0.117521144
237	0xbbf27296	-0.0073989136
238	0x3d166b5f	0.03672349
239	0x3d3f6298	0.046724886
240	0xbdd82fc1	-0.10555983
241	0xbedf0f36	-0.43566293
242	0x3e8d3380	0.27578354
243	0x3f130af1	0.5743857
244	0xbf60a583	-0.8775255
245	0xbda0f2b8	-0.07858795
246	0x3c2c24ef	0.0105068525
247	0xbdb9ede3	-0.090785764
248	0xbe0e8895	-0.1391929
249	0x3d9bf188	0.07614428
250	0x3dfbaddd	0.12289021
251	0xbe8761ad	-0.26441708
252	0xbe09fceb	-0.13475387
253	0x3e02b820	0.1276555
254	0x3d84e7bb	0.064895116
255	0xbeb04c9b	-0.34433445

bias f4 [400]
0	0x3e7fefca	0.24993816
1	0x3e34fb30	0.17673945
2	0xbebcfddf	-0.36912438
3	0xbdcde870	-0.100540996
4	0xbe5d699a	-0.21622315
5	0x3e326423	0.17421012
6	0xbe9156be	-0.28386492
7	0xbd7dd3d8	-0.061969608
8	0xbe0b3ee2	-0.13598207
9	0xbd8efd5a	-0.06981917
10	0xbe61ef39	-0.22063912
11	0xbe21e95d	-0.15811677
12	0xbef268fc	-0.47345722
13	0x3cae22a5	0.021256754
14	0xbecf3ae4	-0.40474617
15	0x3e4b17b2	0.19833258
16	0xbe509d69	-0.20372547
17	0xbec8413e	-0.39112276
18	0x3e228483	0.15870862
19	0xbf07a810	-0.5299082
20	0xbec32a71	-0.38118318
21	0xbe103b1e	-0.14085051
22	0xbe033f96	-0.12817225
23	0x3d928429	0.07154114
24	0x3cb436aa	0.021998722
25	0xbe9056b4	-0.2819115
26	0xbd818e86	-0.06326012
27	0xbe094184	-0.13403898
28	0xbef00731	-0.46880487
29	0xbe24aac7	-0.16080771
30	0x3bd5abde	0.0065207323
31	0xbea2ce01	-0.31797794
32	0xbeb02b31	-0.34407952
33	0xbefa4c9f	-0.48886582
34	0xbebabd10	-0.36472368
35	0xbebf47a2	-0.3735934
36	0x3a4672e8	0.0007570223
37	0xbd1b1b47	-0.03786781
38	0xbebf7f3f	-0.3740177
39	0xbec84be0	-0.39120388
40	0x3e6c815e	0.23096225
41	0xbea3f902	-0.32025915
42	0xbdc650df	-0.09683394
43	0xbebf90be	-0.37415117
44	0xbe1530dd	-0.14569421
45	0x3e42dcae	0.19029495
46	0xbd5d06f7	-0.05396172
47	0xbf05c722	-0.5225698
48	0xbdf0a6dd	-0.11750577
49	0xbd23e687	-0.04001477
50	0xbef0809b	-0.46973118
51	0xbe2b882d	-0.16751166
52	0xbe8b01c7	-0.27149794
53	0xbe0a22da	-0.13489857
54	0xbe6bf157	-0.23041283
55	0xbecb7570	-0.39738035
56	0xbe939903	-0.28827676
57	0xbe2123be	-0.15736291
58	0x3dbaedd9	0.09127397
59	0xbe21f18a	-0.15814796
60	0xbe4b92b1	-0.19880177
61	0xbedc2d86	-0.43003482
62	0xbe934cd7	-0.28769562
63	0xbe88b416	-0.26699895
64	0x3d64da0b	0.055872004
65	0x3e2884a9	0.16456856
66	0xbf013103	-0.5046541
67	0xbeb5553d	-0.35416594
68	0x3d923f34	0.07140961
69	0x3e1c2399	0.15247954
70	0xbe99ff4d	-0.30077592
71	0xbf2e1c45	-0.68011886
72	0x3cc6e348	0.024278298
73	0xbd6f9527	-0.058491852
74	0xbe6b92ae	-0.23005173
75	0xbe2bb9a9	-0.16770042
76	0xbe8594b8	-0.26090026
77	0xbd29eca0	-0.04148543
78	0x3e24ac07	0.16081248
79	0x3e421ca7	0.18956243
80	0x3d994154	0.074831635
81	0xbea3cddb	-0.31992993
82	0xbc56aa3d	-0.013102111
83	0xbe8f5cd1	-0.280005
84	0xbe100343	-0.14063744
85	0xbe344cc4	-0.17607409
86	0x3e0bd019	0.13653602
87	0xbe027f3e	-0.12743852
88	0xbea60caf	-0.32431552
89	0xbebd1800	-0.36932373
90	0x3c369d58	0.011145912
91	0xbe0d8885	-0.1382161
92	0xbe194c16	-0.1497043
93	0xbe84ad24	-0.25913346
94	0x3e50326e	0.20331737
95	0xbd42f542	-0.047597177
96	0x3e137a31	0.14402081
97	0xbf045bd2	-0.51702607
98	0x3db65641	0.089031704
99	0x3df4d2bb	0.11954256
100	0xbe51464e	-0.20436975
101	0xbece6376	-0.40310258
102	0xbe7c7d5e	-0.24657199
103	0xbd8e9db3	-0.069636725
104	0xbeed4d9e	-0.4634828
105	0xbe46f258	-0.19428384
106	0xbd479599	-0.04872665
107	0x3de675bd	0.112529255
108	0xbee8a4ae	-0.4543814
109	0xbebb13e1	-0.36538604
110	0xbe8d925c	-0.27650726
111	0xbe75d3b3	-0.24006538
112	0xbe8b3d6d	-0.27195302
113	0xbde99aba	-0.11406465
114	0xbda1fd8b	-0.079096876
115	0xbe0a34d9	-0.13496722
116	0xbeb6ec53	-0.35727176
117	0xbdc34abc	-0.09535739
118	0xbe1d43a5	-0.15357836
119	0xbeb0ee25	-0.3455669
120	0xbeec1c7c	-0.46115482
121	0x3d2d7057	0.042343464
122	0xbe835889	-0.25653484
123	0xbeac4975	-0.33649793
124	0x3da35d05	0.079767264
125	0xbe57887d	-0.2104816
126	0xbe2b9434	-0.16755754
127	0xbe3d15e9	-0.1846539
128	0x3cb096f9	0.021556364
129	0xbe0c8ced	-0.13725634
130	0xbe9529a7	-0.2913334
131	0xbf1e4b42	-0.61833584
132	0xbea1fa09	-0.31636074
133	0x3b877396	0.004133652
134	0xbe33bb72	-0.17551973
135	0xbee6a609	-0.4504855
136	0xbe99373b	-0.2992495
137	0xbe445947	-0.19174682
138	0xbf1b5f5b	-0.60692376
139	0xbea4e6b6	-0.32207268
140	0xbeaae345	-0.33376518
141	0xbeafc748	-0.34331727
142	0xbec65a5c	-0.38740814
143	0x3e084e7a	0.13311186
144	0xbe841f5d	-0.25805178
145	0xbeac285c	-0.33624542
146	0xbe0fe8eb	-0.14053695
147	0xbe8b7741	-0.2723942
148	0xbd876227	-0.06610518
149	0xbe182dcf	-0.14861225
150	0xbd940d05	-0.07229046
151	0xbe20ca94	-0.15702277
152	0x3b8c496f	0.004281215
153	0xbc84c67e	-0.01620793
154	0x3e837b77	0.25680134
155	0xbd559d1c	-0.052151784
156	0xbec1937d	-0.37807837
157	0xbeae9682	-0.34099203
158	0xbe3688e7	-0.17825662
159	0xbdb4296c	-0.08796963
160	0xbe4afec3	-0.19823746
161	0xbd24bb45	-0.040217657
162	0xbd40205a	-0.046905853
163	0x3c127e34	0.008941222
164	0x3d2be3b0	0.041965187
165	0xbd63124c	-0.05543737
166	0xbe9c4280	-0.30519485
167	0xbc0a7694	-0.008451123
168	0xbe31e0ea	-0.17370954
169	0xbe10c1cc	-0.14136428
170	0xbe9b20dd	-0.3029851
171	0xbdc4d1bc	-0.09610316
172	0xbef63812	-0.48089653
173	0xbe3a8e81	-0.18218423
174	0xbeb16bbf	-0.34652516
175	0xbd97d595	-0.074137844
176	0xbe2740c1	-0.16333295
177	0xbe337c65	-0.17527921
178	0xbc0f5c8c	-0.008750092
179	0xbee9bd8a	-0.4565242
180	0x3c1f7957	0.0097335195
181	0x3e3c8ee8	0.1841389
182	0xbc3f79c7	-0.011686749
183	0xbde93e8f	-0.11388885
184	0xbe925798	-0.28582454
185	0xbdee48fd	-0.11635015
186	0xbe91e267	-0.28493044
187	0xbd6f04ae	-0.058354072
188	0xbdbfc7bc	-0.09364268
189	0xbecf0736	-0.4043519
190	0xbe93219b	-0.28736576
191	0xba82ca98	-0.000997859
192	0xbef7a257	-0.48366043
193	0xbea70ccb	-0.32626948
194	0xbefdd09f	-0.49573228
195	0xbb8522e5	-0.0040629976
196	0xbda00bcd	-0.07814751
197	0xbea31f8a	-0.3186
198	0xbdb052f0	-0.08609569
199	0xbebcc9a8	-0.36872602
200	0x3e99fcde	0.30075735
201	0xbe6e4482	-0.23268321
202	0xbeea4b2e	-0.45760483
203	0xbe928abb	-0.28621468
204	0xbeb0edff	-0.34556577
205	0xbec1075d	-0.3770093
206	0xbe93e6de	-0.28887075
207	0x3d6bf9f4	0.05761142
208	0xbcf851e5	-0.030312488
209	0x3cbb8b1c	0.022893481
210	0x3e899817	0.26873848
211	0xbe7e5522	-0.24837163
212	0xbed40f03	-0.41417703
213	0xbe8fad4f	-0.2806191
214	0xbd8fb430	-0.0701679
215	0xbed9d3e5	-0.42544475
216	0xbe56320e	-0.20917532
217	0xbec5a390	-0.3860135
218	0xbf054425	-0.52057105
219	0xbc9754a7	-0.018472983
220	0x3d1105f4	0.035406068
221	0xbe2ea740	-0.17055988
222	0xbdbb70a7	-0.09152346
223	0xbd51a6f7	-0.05118462
224	0xbd886224	-0.06659344
225	0xbe3d1689	-0.18465628
226	0xbe991739	-0.2990053
227	0xbea01ee5	-0.3127357
228	0xbea703cc	-0.32620084
229	0xbecde0fc	-0.40210712
230	0xbef23105	-0.47303024
231	0xbe95b6aa	-0.29240924
232	0xbe6a7166	-0.2289482
233	0xbeaaec33	-0.3338333
234	0xbedea751	-0.43487027
235	0x3d838613	0.06422057
236	0xbe2f2d0b	-0.17107026
237	0xbec82fe2	-0.39099032
238	0xbdcdfdae	-0.10058151
239	0xbe8f2dfc	-0.2796477
240	0xbea99bc1	-0.33126643
241	0xbe838ed2	-0.256949
242	0xbedc554e	-0.43033832
243	0xbeb1ca60	-0.34724712
244	0xbde259de	-0.11052297
245	0xbedfa6f5	-0.43682066
246	0xbe0a6be8	-0.13517725
247	0x3daed462	0.085366026
248	0xbdd02bfc	-0.10164639
249	0xbd99baf2	-0.0750636
250	0xbded4219	-0.11584873
251	0xbed63887	-0.41840002
252	0xbd9cced7	-0.07656639
253	0xbe18e0c6	-0.14929494
254	0x3c6ea3ec	0.014565449
255	0xbeec39cc	-0.46137846

weight f4 [200, 400]
0	0xbe321814	-0.17391998
1	0xbe1304ea	-0.14357343
2	0xba7cdd5d	-0.0009646023
3	0xbdc26cd8	-0.094934165
4	0xbe2d6199	-0.16931762
5	0xbd97e59c	-0.074168414
6	0xbd5c0fb3	-0.05372591
7	0xbd3eeec9	-0.046614442
8	0xbdf633cf	-0.120216005
9	0xbd236e92	-0.03990037
10	0xbd2d0606	-0.042242073
11	0xbd9918a8	-0.07475406
12	0xbd746e81	-0.059675697
13	0xbc81b200	-0.015831947
14	0x3d55691e	0.0521022
15	0xbe412885	-0.18863113
16	0xbda5e789	-0.081008025
17	0x3e3df835	0.18551715
18	0x3dc05468	0.09391099
19	0xbd976762	-0.073927656
20	0x3c99dfc4	0.018783458
21	0xbd76e92e	-0.06028097
22	0x3da74c46	0.08168845
23	0xbd82317d	-0.063570954
24	0xbe1b1e96	-0.15148386
25	0xbca7b249	-0.020470755
26	0xbd3523af	-0.044223484
27	0xbb329d0a	-0.0027254247
28	0xbd9c1fc9	-0.0762325
29	0xbd423aac	-0.047419235
30	0xbe198337	-0.1499146
31	0xbdfd5f6e	-0.123717174
32	0xbde83236	-0.11337702
33	0xbd42459c	-0.047429666
34	0xbd12be3b	-0.03582595
35	0xbd4a834b	-0.049441617
36	0xbe4e1822	-0.20126393
37	0xbdafbc2e	-0.08580814
38	0xbd36e315	-0.044650156
39	0xbcc3a818	-0.023883864
40	0xbde810dc	-0.11331341
41	0x388d0d31	6.725861e-05
42	0xbc7e6c41	-0.015528739
43	0xbd38d18d	-0.04512172
44	0xbd8ee168	-0.069765866
45	0xbdd73ff2	-0.105102435
46	0xbe03b268	-0.12861025
47	0xbd6ce299	-0.057833288
48	0xbccef363	-0.02526254
49	0xbe64c7fa	-0.2234191
50	0x3d010483	0.031498443
51	0xbda9b3b1	-0.082862265
52	0xbd832c32	-0.06404914
53	0xbd818243	-0.063236736
54	0xbdba40c5	-0.09094385
55	0xbdbc6db1	-0.092006095
56	0x3c2d3e42	0.010573925
57	0xbdea9704	-0.11454585
58	0xbd92e538	-0.07172626
59	0xbdd365fd	-0.10322187
60	0xbe009770	-0.12557769
61	0xbd54622c	-0.051851436
62	0xbd0179d0	-0.03161031
63	0xbd7b9531	-0.061421577
64	0xbe2db5be	-0.1696386
65	0xbe427700	-0.18990707
66	0xbdfbfb42	-0.12303783
67	0xbe4486d8	-0.19192064
68	0xbd681dd8	-0.056669086
69	0x3db483bd	0.088141896
70	0xbd95dd91	-0.07317651
71	0xbdaa0d19	-0.083032794
72	0xbe14a5bd	-0.14516349
73	0xbcc89340	-0.024484277
74	0xbd54b7ff	-0.051933285
75	0xbe1c9d6c	-0.15294427
76	0xbd95dcbe	-0.07317494
77	0xbe1d2209	-0.15345015
78	0xbd75ec67	-0.060039904
79	0xbe1bb32d	-0.15205069
80	0xbe05c9d7	-0.13065277
81	0xbcd01e34	-0.025405027
82	0xbb09f03e	-0.0021047737
83	0xbde2bac3	-0.11070778
84	0x3d544e88	0.051832706
85	0xbb900dc4	-0.0043961722
86	0xbe8e3fda	-0.2778309
87	0xbd856448	-0.06513268
88	0x3d5ed722	0.054404385
89	0xbcc9bd3b	-0.024626365
90	0xbe091d16	-0.13390002
91	0xbde42369	-0.111395665
92	0x3d1535ca	0.03642825
93	0x3dfcb49a	0.123391345
94	0xbdcd4f39	-0.10024876
95	0xbe229a70	-0.15879226
96	0xbe14a982	-0.14517787
97	0xbd566d30	-0.052350223
98	0xbe19c945	-0.15018184
99	0xbdc6d48b	-0.09708508
100	0xbd37615a	-0.044770576
101	0xbd9dbff5	-0.077026285
102	0xbe1fae61	-0.15593864
103	0xbe4a4279	-0.1975192
104	0x3b25d6a1	0.002530493
105	0xbddfe4c0	-0.109323025
106	0xbcb49072	-0.022041533
107	0xbc83e5d7	-0.016100807
108	0xbd9786ec	-0.07398781
109	0xbe1dfe19	-0.15428962
110	0xbe10ca22	-0.14139608
111	0xbd5a2105	-0.053254146
112	0xbde16db1	-0.1100725
113	0xbdccf0ba	-0.100068524
114	0xbe1b3701	-0.15157701
115	0xbc9e4d07	-0.019323839
116	0xbd480e66	-0.048841856
117	0xbe059223	-0.13044028
118	0xbddb8818	-0.10719317
119	0xbe0b6edd	-0.1361651
120	0x3e998c93	0.29990062
121	0xbdf80b40	-0.12111521
122	0xbd671d10	-0.0564242
123	0xbdc18d5d	-0.09450791
124	0xbd08fe1e	-0.03344547
125	0xbdf554fd	-0.11979101
126	0xbdbee74d	-0.09321461
127	0xbdaf409a	-0.08557244
128	0xbe46a7bb	-0.19399922
129	0x3ccbb175	0.024864892
130	0x3c8a7c1f	0.016904889
131	0xbddaa43d	-0.10675857
132	0xbda2f4e9	-0.07956869
133	0x3e06bc75	0.13157828
134	0xbcb3f5b9	-0.021967756
135	0xbd5e86dc	-0.05432783
136	0x3e977ff5	0.2958981
137	0xbcb161a3	-0.021653002
138	0xbe010e1d	-0.1260304
139	0xbe2672aa	-0.16254678
140	0xbd02a315	-0.03189381
141	0x3d309283	0.043108474
142	0xbdc56cd6	-0.096398994
143	0xbdc563ba	-0.09638162
144	0xbe622357	-0.22083794
145	0xbdc9ee13	-0.09859862
146	0x3c5ff854	0.013670046
147	0x3e4558a9	0.19272102
148	0x3def81ff	0.11694717
149	0xbd12ee67	-0.03587189
150	0xbd2c9c91	-0.0421415
151	0xbdcc4e55	-0.09975878
152	0xbe034e29	-0.12822784
153	0xbe07cc3b	-0.13261501
154	0xbd5bf5d9	-0.053701255
155	0xbc78d606	-0.015187746
156	0xbd9b0057	-0.07568424
157	0xbda32c96	-0.079674885
158	0xbdddec41	-0.108360775
159	0xbe085f62	-0.13317636
160	0xbd15a082	-0.036530025
161	0xbdd86bff	-0.105674736
162	0xbd9b3881	-0.07579137
163	0xbcb01f6a	-0.021499354
164	0xbe1008e1	-0.14065887
165	0xbd9764f5	-0.07392303
166	0xbdce7d14	-0.100824505
167	0xbcad91d3	-0.021187698
168	0x3d0f6a98	0.035013765
169	0xbd9c4c2e	-0.076317176
170	0x3bd8f273	0.006620699
171	0xbd76e73c	-0.060279116
172	0xbccbdee4	-0.024886556
173	0x3e07b517	0.13252674
174	0xbdbd1247	-0.09232002
175	0xbd398746	-0.045295022
176	0xbdd6ce41	-0.104885586
177	0xbd2945e9	-0.041326437
178	0x3d95d026	0.07315092
179	0xbd5dde8f	-0.054167327
180	0xbc9d0bad	-0.019170607
181	0xbdb2d870	-0.087326884
182	0xbde8ae2e	-0.11361347
183	0xbcac0adf	-0.021001277
184	0xbcb8ee27	-0.022574497
185	0xbdaf8271	-0.085698016
186	0x3d0eb204	0.034837738
187	0xbd979248	-0.07400948
188	0x3df4672c	0.11933741
189	0xbdc01853	-0.093796395
190	0x3d859557	0.06522625
191	0xbd9e5b12	-0.07732214
192	0x3cbddd8d	0.023176933
193	0x3bf6152d	0.0075098486
194	0xbdd4c7b7	-0.10389655
195	0x3d10de98	0.035368532
196	0x3b2ede19	0.0026682673
197	0x3c96a440	0.018388867
198	0xbda2b941	-0.07945491
199	0xbcd1a865	-0.025592992
200	0xbdf3047e	-0.11866091
201	0xbd2c706d	-0.042099405
202	0xbcf8ada6	-0.03035624
203	0x3d04fa22	0.032465108
204	0xbe4bce52	-0.19902924
205	0xbd139275	-0.036028344
206	0xbd4d7f70	-0.050170362
207	0xbd938db0	-0.07204759
208	0xbd447d28	-0.04797092
209	0xbd7470a0	-0.05967772
210	0xbdc15791	-0.0944053
211	0xbd6e9190	-0.058244288
212	0xbc00b083	-0.007854584
213	0x3bcce99d	0.006253435
214	0xbd307009	-0.043075595
215	0xbd803559	-0.06260175
216	0xbd3a5eba	-0.045500495
217	0x3c8aa26b	0.01692315
218	0xbd90de41	-0.070736416
219	0x3d9cf1bc	0.07663295
220	0xbd5a679c	-0.053321466
221	0xbe0420a5	-0.12903078
222	0xbd28852a	-0.04114262
223	0xbd7b78c2	-0.06139446
224	0x3d184f55	0.037185032
225	0x3c8f2240	0.017472386
226	0xbd1921db	-0.037385803
227	0x3dbaeddd	0.091274
228	0xbd76d1fe	-0.060258858
229	0xbdcaabbb	-0.09896036
230	0xbd2fd0b9	-0.042923663
231	0xbdec9e21	-0.11553598
232	0xbe8e4665	-0.27788082
233	0x3be1310d	0.0068723024
234	0x3ce993dc	0.028512888
235	0xbd370933	-0.044686507
236	0xbcf63121	-0.030052723
237	0xbd7c6298	-0.061617464
238	0x3d8a4647	0.067516856
239	0xbd0e6256	-0.03476175
240	0xbe22eb01	-0.1590996
241	0xbdc7fc45	-0.097649135
242	0xbcc283ae	-0.02374443
243	0x3d3533ae	0.04423874
244	0xbdbf4edf	-0.09341215
245	0xbcf1a0a4	-0.029495545
246	0xbd2b5a1d	-0.041833986
247	0xbdbfe98e	-0.09370719
248	0x3d59c367	0.053164866
249	0xbd3d8329	-0.046267662
250	0xbded1421	-0.11576105
251	0x3d0b8319	0.03406057
252	0xbcc65217	-0.024209065
253	0x3e43e05b	0.19128554
254	0x3dfc1166	0.12308006
255	0x3cada0b9	0.021194803

bias f4 [200]
0	0xbd71f627	-0.05907264
1	0xbdda0946	-0.106463
2	0xbd91cfb9	-0.07119698
3	0xbda8289c	-0.082108706
4	0x3c13b262	0.009014698
5	0xbd9b27f1	-0.075759776
6	0xbda29b2b	-0.07939752
7	0xbda53104	-0.080659896
8	0xbd1ea2f9	-0.03872964
9	0xbd7204fd	-0.05908679
10	0xbd355f50	-0.04428035
11	0xbc418055	-0.011810382
12	0xbda5001a	-0.0805666
13	0xbd516391	-0.051120345
14	0xbbef851a	-0.007309568
15	0xbe31871f	-0.17336701
16	0xbd0de22e	-0.03463953
17	0xbe20c955	-0.15701802
18	0xbcc5e733	-0.024158096
19	0xbdc342b9	-0.09534211
20	0xbe021d7c	-0.1270656
21	0x3b9c285e	0.0047655543
22	0xbe1a0a55	-0.15043004
23	0xbc08de9d	-0.008353856
24	0xbd7416e9	-0.05959216
25	0xbe00186e	-0.12509319
26	0xbe57957c	-0.21053118
27	0xbd6d15d3	-0.05788214
28	0x3ddaa478	0.10675901
29	0xbd8728db	-0.065995894
30	0xbd9e88e6	-0.07740955
31	0x3da56d52	0.08077492
32	0x3db153d4	0.08658567
33	0xbd5cfb4e	-0.0539506
34	0xbdccd0ea	-0.10000785
35	0xbd1cc8a8	-0.0382773
36	0xbd31b2b1	-0.043383304
37	0xbe465e13	-0.19371824
38	0xbd23055d	-0.039800037
39	0xbe6f7c0a	-0.23387161
40	0xbd437c3c	-0.0477259
41	0xbd443808	-0.047904998
42	0xbe4b9482	-0.1988087
43	0x3ed73c14	0.42038023
44	0x3cec0e0f	0.028815297
45	0xbd46bfd1	-0.048522774
46	0xbdcf02b7	-0.1010794
47	0xbdab5406	-0.083656356
48	0xbd9c6425	-0.076362886
49	0x3dd91723	0.10600116
50	0xbd2d20da	-0.042267658
51	0xbd947df0	-0.07250583
52	0xbd20fec2	-0.039305456
53	0xbdefabf6	-0.11702721
54	0xbd93f845	-0.07225088
55	0xbc1a7af1	-0.009428726
56	0xbdb1ffa0	-0.08691335
57	0xbdabae12	-0.08382811
58	0xbd296b8b	-0.041362327
59	0xbde3a058	-0.111145675
60	0xbcc9a99d	-0.02461701
61	0xbd8622c4	-0.065496
62	0x3ec6710e	0.3875813
63	0xbdd8945f	-0.105751745
64	0xbe8be641	-0.27324107
65	0xbd8d556c	-0.069010586
66	0xbe240f4d	-0.16021462
67	0xbe1e3bca	-0.15452495
68	0x3d2eb7ed	0.042655874
69	0xbd4f3233	-0.050584983
70	0xbdb3e99d	-0.087847926
71	0x3cd1aa91	0.025594028
72	0x3d659b3d	0.05605625
73	0xbd1956db	-0.037436347
74	0x3a3f6f29	0.0007302636
75	0xbd26635d	-0.040622104
76	0x3d603984	0.05474235
77	0xbdeb45aa	-0.11487897
78	0xbd855409	-0.06510169
79	0xbd02da07	-0.03194621
80	0xbd1621bf	-0.036653277
81	0xbcb426e4	-0.0219912
82	0xbd76baec	-0.060236856
83	0xbdcf1767	-0.101118855
84	0x3e033914	0.12814742
85	0xbdad9035	-0.08474771
86	0xbda06a6d	-0.07832799
87	0xbdbdc42e	-0.09265934
88	0xbdbfff07	-0.093748145
89	0xbc8cffe5	-0.017211864
90	0x3b2b5b0c	0.0026146797
91	0xbddbf171	-0.10739411
92	0xbca0e00c	-0.019638084
93	0xbda90a83	-0.08253958
94	0x3e3fc1de	0.18726298
95	0xbe1535c1	-0.14571287
96	0xbddc4d6d	-0.10756955
97	0x3d78f944	0.060784593
98	0xbd9d0bac	-0.07668242
99	0xbd8a982b	-0.06767305
100	0xbdbd1879	-0.092331834
101	0x3d7b9ed9	0.061430786
102	0xbdf440ee	-0.11926447
103	0xbde13151	-0.109957345
104	0x3b8dabdb	0.0043234653
105	0xbc963ea0	-0.018340409
106	0x3cd8f6cb	0.026484868
107	0xbbd0fc27	-0.006377715
108	0xbda83a38	-0.08214229
109	0xbdfc765a	-0.12327261
110	0xbd854942	-0.065081134
111	0x3de79efc	0.11309621
112	0xbe73b7d1	-0.23800589
113	0xbde551d5	-0.11197249
114	0xbe056aa3	-0.1302896
115	0xbd1e9af9	-0.038722012
116	0xbdb37940	-0.08763361
117	0xbd773b89	-0.06035951
118	0x3dc2eac1	0.09517432
119	0xbe03478e	-0.12820265
120	0xbe060470	-0.1308763
121	0x3d8655dd	0.06559346
122	0xbc23568b	-0.009969364
123	0xbddc1f2a	-0.107481316
124	0xbe025a2c	-0.1272971
125	0xbc7bf167	-0.015377379
126	0xbdc5ee3c	-0.0966458
127	0xbd568e37	-0.05238172
128	0xbdd44337	-0.10364383
129	0xbe6392d0	-0.22223973
130	0xbc90d726	-0.017680716
131	0xbe3e243b	-0.18568508
132	0xbd52403e	-0.051330797
133	0xbe6853f1	-0.22688271
134	0xbe340485	-0.17579849
135	0xbcc8d606	-0.024516117
136	0xbe0d8eb8	-0.13823974
137	0xbe2d34dc	-0.16914696
138	0xbdc6c4d4	-0.09705511
139	0xbe712ffb	-0.2355346
140	0xbd8bdf3b	-0.06829687
141	0xbceec023	-0.029144352
142	0xbd83022b	-0.06396898
143	0xbccedb6c	-0.025251113
144	0xbd405714	-0.046958044
145	0xbedce8f0	-0.43146467
146	0xbd675535	-0.056477744
147	0xbdf8f31d	-0.12155745
148	0xbdf1e5a6	-0.1181138
149	0xbe3e9152	-0.18610123
150	0xbe3ab32f	-0.18232416
151	0x3d26a2fe	0.040682785
152	0xbd765fb8	-0.06014988
153	0x3ea0f9df	0.31440637
154	0xbcf145e1	-0.029452266
155	0x3de78b5c	0.113058776
156	0xbe60b498	-0.21943891
157	0xbddded13	-0.10836234
158	0xbea77c08	-0.32711816
159	0xbd1261da	-0.03573785
160	0x3c1e864a	0.009675572
161	0xbd9d02f6	-0.076665804
162	0xbd983b47	-0.07433181
163	0xbcdecd5d	-0.027197534
164	0xbc9b6c9c	-0.018972687
165	0x3d88f116	0.066866085
166	0xbc875a10	-0.016522437
167	0xbd8662c8	-0.0656181
168	0x3e85ed1f	0.26157472
169	0xbdbe7a38	-0.09300655
170	0x3ceed750	0.029155403
171	0xbdc4b9f6	-0.09605782
172	0xbd399211	-0.045305315
173	0xbd641e78	-0.05569312
174	0xbd5b1de3	-0.0534953
175	0xbe69a56d	-0.22817011
176	0xbd5081e5	-0.050905127
177	0xbd8c0f48	-0.06838852
178	0xbe2f4368	-0.17115557
179	0xbca2c30f	-0.019868402
180	0x3e284586	0.16432771
181	0xbe249c0b	-0.1607515
182	0x3db0ed9a	0.08639069
183	0xbdf8ea83	-0.121541046
184	0xbcc96ea9	-0.0245889
185	0xbd30a296	-0.043123804
186	0xbcdc4180	-0.026886702
187	0xbe17cee2	-0.14825013
188	0xbd7db78f	-0.061942633
189	0xbc875488	-0.0165198
190	0x3d8519d5	0.06499068
191	0xbdcf38d4	-0.10118261
192	0xbd8eafaf	-0.06967103
193	0x3b5d86db	0.0033802304
194	0xbdcbb84b	-0.099472605
195	0xbd13a8d5	-0.036049683
196	0xbd4227bd	-0.04740118
197	0xbda25d5a	-0.07927962
198	0xbda82c41	-0.08211566
199	0xbd9ca5ce	-0.07648812

weight f4 [1, 200]
0	0x3b387c23	0.0028150163
1	0x3b567daf	0.0032728722
2	0x3c31c90f	0.010851159
3	0x3ce33aa6	0.027737927
4	0xbe159a26	-0.14609584
5	0xba4c3181	-0.0007789359
6	0x3b7a3176	0.0038176454
7	0xbc685d96	-0.014182469
8	0xbb8beaac	-0.0042699184
9	0xbd5643de	-0.052310817
10	0xbca8c264	-0.020600505
11	0x3d65a27c	0.05606316
12	0xbc5a5269	-0.013325312
13	0x3c0cc8c3	0.008592787
14	0xbc05cbba	-0.008166248
15	0xbcd33deb	-0.02578636
16	0xbb86289f	-0.004094198
17	0xbc24c7a9	-0.010057368
18	0x3a495d50	0.0007681446
19	0xbd3c9257	-0.046037998
20	0xbccb2fb8	-0.024803028
21	0xbc2fdc06	-0.01073361
22	0x3cbe378d	0.023219848
23	0xba8c854f	-0.0010720881
24	0xbc35b449	-0.011090347
25	0x3a30b857	0.0006741336
26	0x3cad7b98	0.021177098
27	0x3c7f72c7	0.01559133
28	0x3d9ce73d	0.07661293
29	0x3b9d6c02	0.0048041353
30	0x3d0fd23d	0.03511261
31	0xbde569c6	-0.11201815
32	0xbdbdd664	-0.092694074
33	0x3cb60893	0.022220885
34	0x3d0e344d	0.034717847
35	0xbcf1fcc4	-0.029539473
36	0x3bdabd8e	0.0066754287
37	0xbc2c069b	-0.010499622
38	0xbce9b5b1	-0.02852902
39	0xbd5c1b20	-0.053736806
40	0x3b012b62	0.0019709696
41	0x3b2505ef	0.0025180539
42	0x3ce67c58	0.028135464
43	0x3e446e07	0.19182597
44	0xbb9b0aa0	-0.004731491
45	0xbb48b0ef	-0.0030623039
46	0x3b06b6dd	0.0020555772
47	0x3c5e4224	0.013565574
48	0xbb58420c	-0.0032998351
49	0x3d2dab6b	0.042399805
50	0x3cecd2b4	0.028909065
51	0xbce27971	-0.027645798
52	0xbb3c7ba5	-0.0028760221
53	0xbcacc3a9	-0.021089392
54	0xbc9b2154	-0.01893679
55	0xbc95fd77	-0.018309338
56	0xbdcd4f76	-0.100249216
57	0x3d278942	0.040902384
58	0x3c85f85a	0.016353775
59	0x3d06eae7	0.032938864
60	0x3d19458d	0.037419844
61	0xbcd30647	-0.02575983
62	0x3e1a6b60	0.15080023
63	0x3d8d1d6a	0.06890376
64	0xbd16a4d5	-0.03677829
65	0x3c54ec6b	0.01299582
66	0xbc5117c3	-0.012762013
67	0xbc510c4c	-0.012759279
68	0x3c0397a7	0.008031762
69	0xbc85fe7c	-0.0163567
70	0x3d63d19e	0.05561983
71	0xbb3b856f	-0.0028613468
72	0x3cf875a2	0.03032953
73	0x3d40d26d	0.047075678
74	0xbb7ed2de	-0.003888301
75	0xbcf84f63	-0.030311292
76	0x3b31da41	0.0027138146
77	0xbc8beb66	-0.01708002
78	0x3cb45964	0.022015281
79	0x3c2cb5cb	0.01054139
80	0xbbbc72a0	-0.005750969
81	0xbce04ef5	-0.0273814
82	0x3d43aaaa	0.04777018
83	0xbcaad3a7	-0.020852877
84	0xbdade5a5	-0.08491067
85	0x3bf12a47	0.007359776
86	0xbae61e73	-0.0017556682
87	0x3d5db9cb	0.054132264
88	0xbbdda5e8	-0.0067641623
89	0xbc851576	-0.016245585
90	0x3c23ae3d	0.009990272
91	0x3d782a1f	0.060587045
92	0x3adea539	0.0016986496
93	0xbb8ce3e2	-0.0042996267
94	0xbe05b17c	-0.13055986
95	0xbd31ddd0	-0.043424428
96	0x3c72fed0	0.01483126
97	0xbc87f88d	-0.01659801
98	0x3ab9adbe	0.0014166159
99	0x3cebb0e7	0.028770877
100	0x3c648b8b	0.013949285
101	0x3d6289fc	0.055307373
102	0x3bfc8b89	0.0077070636
103	0x3cb73103	0.022362238
104	0xbc0cf77a	-0.008603925
105	0xbbca2228	-0.0061686225
106	0x3cc89e64	0.024489589
107	0xbac6b0b9	-0.0015158869
108	0xbd038943	-0.032113325
109	0x3cad7bee	0.021177258
110	0x3cfd6228	0.030930594
111	0x3e1935c8	0.14961922
112	0xbd7afd03	-0.061276447
113	0x3e602d34	0.21892244
114	0xbc785f6e	-0.015159471
115	0x3d52db62	0.05147875
116	0xbc0cc958	-0.008592926
117	0xbc87f6e1	-0.016597213
118	0x3be1a07d	0.006885587
119	0xbcdcb375	-0.02694104
120	0xbb41b5fd	-0.0029557936
121	0x3de164e6	0.11005573
122	0xba403878	-0.0007332633
123	0x3af08ae8	0.0018351944
124	0xbd4a209c	-0.049347505
125	0x3bb65640	0.005564481
126	0x3d4a012c	0.049317524
127	0xbcd76401	-0.026292803
128	0x3bcb3985	0.006201925
129	0x3da17ba3	0.0788491
130	0x3d2a6de5	0.04160871
131	0xbc25ac8d	-0.01011194
132	0x3d49be05	0.049253482
133	0xbcd22ecb	-0.025657078
134	0xbd8d48bd	-0.06898639
135	0xbb6dd5d8	-0.003629079
136	0x3d472faa	0.04862944
137	0xbcca45a9	-0.02469142
138	0x3d104d49	0.035229955
139	0xbd6ef0a2	-0.058334954
140	0xbd1cc78a	-0.038276233
141	0xbd32252b	-0.043492477
142	0x3c6d3f73	0.0144804595
143	0x3c9c574a	0.019084591
144	0xbc7daa21	-0.015482456
145	0xbd2ff0b9	-0.04295418
146	0xbc772bc8	-0.015086122
147	0x3bcf62af	0.0063289027
148	0xbd38b1bc	-0.045091376
149	0xbd54ae05	-0.05192377
150	0xbc9d2ce6	-0.019186448
151	0xbc9de089	-0.019272106
152	0xbc7bb505	-0.015362983
153	0xbeacf744	-0.337824
154	0x3c993728	0.018703058
155	0xbdddfb2e	-0.10838924
156	0xbcff0949	-0.031132357
157	0x3c2c932d	0.010533136
158	0xbdd0f790	-0.10203469
159	0xbaba420c	-0.0014210357
160	0xbd03f075	-0.03221174
161	0x3d3009e8	0.042978197
162	0x3a905d17	0.0011014071
163	0x3cc28181	0.023743393
164	0xbd23ba6b	-0.039972704
165	0xbd9e005d	-0.07714913
166	0x3cc9689e	0.024586018
167	0x3ca05fa6	0.019576859
168	0x3dc2301d	0.09481833
169	0xbb49a2c1	-0.0030767175
170	0xbc9a0bcb	-0.018804451
171	0x3c3c7a80	0.011503816
172	0xbc5b3c34	-0.013381053
173	0xbd057da2	-0.032590516
174	0x3d52155e	0.05128991
175	0xbd138290	-0.036013186
176	0xbce19b11	-0.027539762
177	0xbd6b8bd8	-0.057506412
178	0xb9be0634	-0.00036244246
179	0xbd4a239b	-0.049350362
180	0xbd8924c3	-0.06696465
181	0xbc2a8471	-0.010407553
182	0x3df636ed	0.12022195
183	0xbb25b4fc	-0.0025284877
184	0xbc1566a1	-0.009118707
185	0xba5be0a9	-0.0008387664
186	0x3d388626	0.04504981
187	0xbd3e0ab6	-0.046396933
188	0xbcace91c	-0.021107249
189	0xbc74eb5a	-0.01494869
190	0xbe003018	-0.12518346
191	0x3b873304	0.0041259546
192	0xbd25b637	-0.040456977
193	0xbbe217f6	-0.006899829
194	0x3aa1aa24	0.0012334031
195	0xbd48252b	-0.04886357
196	0x3d37a418	0.044834226
197	0x3cc4c21a	0.024018336
198	0x3ae17d4e	0.0017203481
199	0x3d11859d	0.035527814
