Labs/2/problem3/neural-network-3-actor.pth (torch, 666314 bytes, 10 tensors)

weight f4 [400, 8]
0.20879261 0.05047574 -0.022032553 0.30695385 -0.08190884 0.21749444 0.31296778 -0.08427334
-0.16945107 -0.21522784 -0.10405764 -0.30068567 0.2811641 0.20102897 0.034601387 -0.2195353
-0.19082004 0.063835256 -0.3092935 0.17773657 -0.078644454 -0.01573588 0.14194213 0.17619964
-0.21690421 0.1914665 -0.2830869 0.1629409 -0.21435972 -0.2919663 -0.15073493 0.3622087
0.24407077 0.1768657 0.10593342 -0.32460013 0.2722481 -0.27501905 0.095244214 -0.23767962
-0.09916993 0.051173355 -0.20223242 -0.0631109 -0.17668058 0.13803768 0.17939712 0.25661466
0.010104596 -0.094818436 -0.033123203 0.087647215 -0.23131889 -0.276341 0.21062002 -0.10408832
0.17208552 -0.016031293 0.22577854 -0.34188256 -0.22979459 0.0074860617 0.05181396 -0.11853819
0.059447482 -0.1419894 -0.23026578 0.23551941 0.21842723 -0.26819852 -0.25799704 -0.077404246
-0.081933305 -0.11179587 0.07732634 -0.3370231 -0.34948316 -0.18625054 0.2473069 -0.091727816
0.11525371 0.3477868 -0.28456876 0.14349034 -0.1905047 -0.32667565 -0.1267006 -0.15557788
0.20224379 -0.0023044075 -0.23449928 0.17941017 0.061648656 0.22234769 0.05513523 0.29789135
-0.1085204 0.25668898 -0.31289512 0.3038816 -0.27272633 0.30570993 0.17736802 0.35977933
0.094361536 0.040575642 0.036492396 0.19044343 0.0755144 -0.29668212 -0.21181574 0.0036067667
0.16621582 -0.017442752 -0.23388788 -0.15567885 -0.13741949 0.22924519 -0.17031418 -0.24968143
-0.2598288 -0.1440071 -0.29367724 0.103723034 0.3855135 0.07743269 -0.042520255 0.21268862
0.10205184 -0.2141859 0.12363947 -0.2909925 0.33641294 -0.11437684 -0.047255293 0.0006080835
-0.29578802 0.022704884 0.2560417 0.31887564 0.16298676 0.28384295 0.09938409 -0.09449608
-0.005183325 -0.32599595 -0.2975471 -0.020612795 -0.1433157 0.18773128 0.2778711 0.3250745
-0.095833756 0.13963781 -0.080675095 0.21207616 -0.16321813 -0.24378341 -0.31207058 0.034130637
0.27354482 0.18836558 -0.24603146 0.24052437 0.057971388 -0.21342741 0.14065151 0.15585187
0.33815813 -0.046925887 -0.021945784 -0.026107933 -0.08957392 0.30850434 0.352673 -0.16713507
0.07051556 -0.32490927 0.122605085 -0.22332613 0.30033082 0.19173643 0.085404105 0.3482662
0.25134134 -0.07813311 -0.025670867 -0.18209448 -0.2034771 0.024315175 0.29137775 0.31216303
0.25673681 -0.16954216 -0.24581148 0.08368368 0.13941963 -0.22640507 0.25060606 -0.11584799
-0.10942697 -0.35297352 -0.09690383 -0.26066673 -0.30216154 0.17353824 -0.1833031 0.16872269
-0.020162657 -0.018347852 0.15179916 -0.14760433 -0.29020998 0.21862361 -0.19493526 0.21761355
0.19226816 -0.08398289 0.26303405 -0.0032878828 -0.15294825 0.0030779324 0.1555803 -0.042362917
-0.21776116 0.009109238 -0.26643726 -0.1302122 0.021775266 0.08798632 0.17020084 -0.25242147
-0.05541772 -0.12081073 -0.09684352 -0.047535438 0.017703138 -0.006736325 0.123547554 0.26032946
-0.26462197 0.11605687 -0.30977854 0.2540476 0.10370789 -0.12012067 0.14535485 -0.3045901
0.17224286 -0.17619261 -0.13645236 0.026094044 -0.05036399 0.24489267 0.1967529 -0.22858423
00000000: bbcd 553e a6bf 4e3d 9d7d b4bc 0e29 9d3e
00000010: d2bf a7bd ddb6 5e3e 503d a03e 8097 acbd
00000020: 9584 2dbe b064 5cbe 2c1c d5bd 79f3 99be
00000030: bef4 8f3e 8ada 4d3e 2fba 0d3d ddcd 60be
00000040: 5466 43be 0fbc 823d b85b 9ebe 9300 363e
00000050: 5810 a1bd 88e8 80bc 4759 113e ae6d 343e
00000060: 231c 5ebe cb0f 443e c4f0 90be fbd9 263e
00000070: 1d81 5bbe 9b7c 95be 425a 1abe 6b73 b93e
00000080: b0ed 793e 481c 353e 9ff3 d83d fd31 a6be
00000090: 1a64 8b3e 4ccf 8cbe 660f c33d 4962 73be
000000a0: 9b19 cbbd 279b 513d 0416 4fbe 4a40 81bd
000000b0: c1eb 34be c059 0d3e e1b3 373e ff62 833e
000000c0: bf8d 253c 2b30 c2bd 32ac 07bd 6280 b33d
000000d0: dcde 6cbe 917c 8dbe c6ac 573e 422c d5bd
000000e0: 3037 303e 0f54 83bc 7d32 673e 3b0b afbe
000000f0: 464f 6bbe a34d f53b e03a 543d 27c4 f2bd
00000100: 347f 733d ab65 11be cbca 6bbe 002c 713e
00000110: 63ab 5f3e 5151 89be 3018 84be 1e86 9ebd
00000120: a6cc a7bd 3cf5 e4bd 465d 9e3d 4b8e acbe
00000130: 75ef b2be 76b8 3ebe 053e 7d3e cbdb bbbd
00000140: 230a ec3d 1d11 b23e ffb2 91be 22ef 123e
00000150: aa13 43be 0842 a7be cdbd 01be cf4f 1fbe
00000160: ff18 4f3e 8b05 17bb 9420 70be 4db7 373e
00000170: 4d83 7c3d 1daf 633e 7bd5 613d 3785 983e
00000180: f23f debd bd6c 833e ca33 a0be 5e96 9b3e
00000190: c9a2 8bbe 0386 9c3e f69f 353e ff34 b83e
000001a0: 9f40 c13d a532 263d 0d79 153d 9a03 433e
000001b0: 4ba7 9a3d b8e6 97be 3ae6 58be 815f 6c3b
000001c0: 7b34 2a3e 1ae4 8ebc 4e80 6fbe 476a 1fbe
000001d0: b2b7 0cbe 40bf 6a3e d766 2ebe 7dac 7fbe
000001e0: 4808 85be 9976 13be dd5c 96be be6c d43d
000001f0: 0762 c53e 0895 9e3d b829 2ebd 0ccb 593e
00000200: 8e00 d13d 8c53 5bbe b136 fd3d f8fc 94be
00000210: 513e ac3e 683e eabd c48e 41bd cb67 1f3a
00000220: 8771 97be 98ff b93c e617 833e ab43 a33e
00000230: 00e6 263e dd53 913e e389 cb3d 2987 c1bd
00000240: e2d8 a9bb f1e8 a6be 1858 98be 2adc a8bc
00000250: 5ac1 12be a13c 403e 1f45 8e3e 2a70 a63e
00000260: 7d44 c4bd 37fd 0e3e fc38 a5bd 7e2a 593e
00000270: a722 27be 5ca2 79be b7c7 9fbe 91cc 0b3d
00000280: 110e 8c3e e8e2 403e acef 7bbe 054c 763e
00000290: 6873 6d3d b78c 5abe f306 103e a297 1f3e
000002a0: 1023 ad3e 5c35 40bd a5c7 b3bc 4ee0 d5bc
000002b0: 8872 b7bd 48f4 9d3e 8e91 b43e 7525 2bbe
000002c0: 766a 903d 825a a6be 6018 fb3d 9baf 64be
000002d0: f6c4 993e 8e56 443e 59e8 ae3d f34f b23e
000002e0: d0af 803e 4104 a0bd b64b d2bc fa76 3abe
000002f0: 4d5c 50be 9e30 c73c 772f 953e d5d3 9f3e
00000300: 0273 833e 769c 2dbe 01b6 7bbe 5962 ab3d
00000310: 05c4 0e3e bbd6 67be 704f 803e b641 edbd
00000320: 3f1b e0bd f2b8 b4be 8475 c6bd 1c76 85be
00000330: ebb4 9abe 02b4 313e cfb3 3bbe a4c5 2c3e
00000340: 282c a5bc 3c4e 96bc 3d71 1b3e 9725 17be
00000350: 6796 94be dede 5f3e 1c9d 47be 16d6 5e3e
00000360: f2e1 443e 39ff abbd 66ac 863e 8579 57bb
00000370: 779e 1cbe 23b7 493b 7150 1f3e bd84 2dbd
00000380: c8fc 5ebe ea3e 153c 776a 88be 5956 05be
00000390: 0b62 b23c 2c32 b43d 2149 2e3e 633d 81be
000003a0: b1fd 62bd 9e6b f7bd e555 c6bd 85b4 42bd
000003b0: 2c06 913c 64bc dcbb 8006 fd3d e749 853e
000003c0: 887c 87be 39af ed3d 4b9b 9ebe 8712 823e
000003d0: cd64 d43d d301 f6bd e7d7 143e 3cf3 9bbe
000003e0: 6f60 303e d66b 34be 2bba 0bbe 2dc3 d53c
000003f0: 794a 4ebd 25c5 7a3e 9879 493e fc11 6abe

bias f4 [400]
-0.2462228 0.30940282 0.20751323 -0.2535751 -0.042598464 -0.16910295 0.21601306 -0.19083641
-0.20801352 -0.04659152 0.08724801 -0.24540563 -0.10779817 -0.23392123 -0.15789032 0.3454908
0.11118357 0.20054439 -0.1419253 0.004025013 -0.21825393 -0.34815103 0.07621621 -0.3332912
0.22179024 -0.25946078 -0.11505339 0.32908356 -0.15344582 0.23760681 -0.34588626 0.0153711755
0.33645278 0.11861982 -0.20052418 0.2119422 -0.044608478 -0.12202275 -0.18167362 -0.11547485
0.23452216 0.10955008 -0.1245475 -0.10714133 0.26531953 -0.3284619 0.23060931 -0.32245246
-0.33368734 0.053118367 0.28609344 0.19206369 0.2645093 0.32195535 -0.00012934925 0.17911696
-0.16153556 0.1695812 0.19447683 0.0056413193 0.08725474 -0.20567486 -0.316649 -0.1840772
0.21926035 0.29708633 -0.0025876153 -0.28437188 -0.106027946 -0.2819585 -0.21803018 0.24293682
-0.20003994 -0.0608289 0.31986707 -0.21765123 0.21084125 -0.16021186 0.0067195734 -0.31465483
-0.24822737 -0.17087762 0.24820201 -0.16284795 0.1945547 0.015156427 0.22598425 0.22601046
-0.18748178 -0.2983799 -0.30353287 0.3281272 -0.120434076 -0.22225723 -0.32088706 -0.29077932
0.03340555 0.076618746 -0.097425885 0.30161548 0.24049452 -0.1571307 0.12870094 0.2615302
0.26815328 -0.0041935686 -0.1660035 0.29475075 0.1798951 -0.1400073 0.3505849 -0.08762456
0.047974516 0.118044645 0.28765845 0.35177466 -0.29408994 -0.27315882 0.16009726 0.05128182
0.33380556 0.21280977 -0.27341408 -0.22414137 -0.010435768 -0.17531988 -0.07504936 -0.18209551
-0.33538577 0.3103499 -0.23271789 0.14594388 -0.19511718 0.03501358 -0.25684634 0.0845471
-0.2071353 0.047286548 0.17164567 -0.35472322 0.10547936 0.05722614 0.22236623 -0.048900038
0.015398701 0.032407634 0.1799387 0.15797247 0.037868384 -0.30034435 -0.3114163 0.3284666
0.17065367 0.30165717 0.050611485 0.2634508 0.017596425 -0.22934628 0.23004572 0.15716437
-0.31905374 0.34402183 0.11331261 0.16687338 -0.2854814 0.23529086 0.070482545 0.29847232
0.19345759 0.13428856 0.35205898 -0.0030302913 0.06532965 -0.05725659 -0.23552048 0.3405561
0.10437509 -0.1174884 -0.21231446 0.18830788 0.3307017 0.043149937 -0.1242422 -0.033321258
-0.033726204 0.21035115 0.109685905 0.022954674 -0.12297504 0.12707773 0.08334516 0.08051075
-0.28056353 -0.098414555 0.02205662 -0.07563861 0.24463138 -0.31038496 -0.053012915 0.14967197
-0.16236532 -0.3197013 -0.18110226 0.32462844 0.096003726 0.14346701 -0.23358443 0.11522159
-0.061555322 0.29887763 -0.30973503 -0.052611865 -0.24266645 -0.3357743 -0.13159557 -0.10690554
0.04994573 -0.039368596 0.17123339 -0.22580181 -0.018886318 0.2664358 -0.117225826 0.11062669
0.09033331 0.21761264 0.33160144 0.23133528 -0.24163015 -0.25223166 0.029709736 -0.2657237
-0.020218434 -0.33685303 -0.09239696 -0.07946187 -0.08590158 -0.3272772 -0.31789035 0.22074838
0.20030312 0.07465205 -0.26179534 -0.03401853 0.21886572 -0.19484355 0.34367633 0.059134167
0.022056773 0.22994581 0.100424945 -0.15487546 0.23822074 0.032116342 0.0700943 0.16316661
00000000: d421 7cbe 0c6a 9e3e 597e 543e 98d4 81be
00000010: ba7b 2ebd 5329 2dbe 8732 5d3e 9f6a 43be
00000020: 7f01 55be c0d6 3ebd 16af b23d 9d4b 7bbe
00000030: 49c5 dcbd 0c89 6fbe 00ae 21be 2ce4 b03e
00000040: 36b4 e33d 825b 4d3e de54 11be 42e4 833b
00000050: f57d 5fbe da40 b2be 3f17 9c3d 25a5 aabe
00000060: fb1c 633e 0bd8 84be 1da1 ebbd a47d a83e
00000070: e720 1dbe 334f 733e 0118 b1be 62d7 7b3c
00000080: 8a43 ac3e f3ee f23d 3656 4dbe 6007 593e
00000090: 61b7 36bd 10e7 f9bd a608 3abe 147e ecbd
000000a0: 9426 703e cb5b e03d c212 ffbd ea6c dbbd
000000b0: f6d7 873e 282c a8be d924 6c3e 7d18 a5be
000000c0: 11d9 aabe a592 593d d77a 923e 58ac 443e
000000d0: c36d 873e 55d7 a43e eda1 07b9 706a 373e
000000e0: 9469 25be b2a6 2d3e ef24 473e d1da b83b
000000f0: 9db2 b23d 6e9c 52be d11f a2be bc7e 3cbe
00000100: c985 603e b31b 983e fb94 29bb 3199 91be
00000110: 2e25 d9bd dd5c 90be 4e43 5fbe 6ec4 783e
00000120: 45d7 4cbe ba27 79bd 9ec5 a33e f7df 5ebe
00000130: c5e6 573e 940e 24be de2f dc3b 701a a1be
00000140: 512f 7ebe 8bfa 2ebe ab28 7e3e 9dc1 26be
00000150: 5939 473e aa52 783c 6a68 673e 496f 673e
00000160: 39fb 3fbe 40c5 98be a968 9bbe 4a00 a83e
00000170: 24a6 f6bd 6697 63be 4f4b a4be 07e1 94be
00000180: 42d4 083d 4aea 9c3d 3987 c7bd 586d 9a3e
00000190: 3244 763e dfe6 20be 2eca 033e 49e7 853e
000001a0: 634b 893e 346a 89bb d2fc 29be 92e9 963e
000001b0: 6c36 383e 135e 0fbe dd7f b33e 8174 b3bd
000001c0: ed80 443d 64c1 f13d f847 933e cf1b b43e
000001d0: f592 96be 79db 8bbe 89f0 233e e30c 523d
000001e0: 90e8 aa3e ceea 593e eefc 8bbe 5185 65be
000001f0: c9fa 2abc 0e87 33be 7bb3 99bd 3f77 3abe
00000200: afb7 abbe 2fe6 9e3e 994d 6ebe 5072 153e
00000210: cccc 47be 666a 0f3d 5d81 83be 0827 ad3d
00000220: 471b 54be 8aaf 413d e2c3 2f3e 489e b5be
00000230: 9005 d83d f565 6a3d f9b3 633e 684b 48bd
00000240: d54a 7c3c debd 043d da41 383e 89c3 213e
00000250: e11b 1b3d bcc6 99be f571 9fbe c62c a83e
00000260: d6bf 2e3e cf72 9a3e fd4d 4f3d 06e3 863e
00000270: 6126 903c c0d9 6abe 1b91 6b3e b2ef 203e
00000280: 035b a3be a123 b03e 7110 e83d dbe0 2a3e
00000290: 9e2a 92be 16f0 703e 2759 903d 5dd1 983e
000002a0: bf19 463e f182 093e 1341 b43e da97 46bb
000002b0: 8dcb 853d e385 6abd 482c 71be 5e5d ae3e
000002c0: 9bc2 d53d c29d f0bd f668 59be c8d3 403e
000002d0: bc51 a93e fdbd 303d b272 febd df7b 08bd
000002e0: 7d24 0abd 4b66 573e 01a3 e03d 710b bc3c
000002f0: 56da fbbd aa20 023e deb0 aa3d d2e2 a43d
00000300: 06a6 8fbe 928d c9bd 16b0 b43c 6ae8 9abd
00000310: a680 7a3e c7ea 9ebe 1224 59bd 9c43 193e
00000320: 1843 26be e4af a3be df72 39be b335 a63e
00000330: 9a9d c43d 04e9 123e c230 6fbe 4cf9 eb3d
00000340: 6f21 7cbd 7d06 993e 9795 9ebe 8a7f 57bd
00000350: 8e7d 78be 9cea abbe fdc0 06be 4bf1 dabd
00000360: e593 4c3d f740 21bd ce57 2f3e 9738 67be
00000370: 7bb7 9abc 466a 883e 1814 f0bd 3f90 e23d
00000380: ac00 b93d d9d5 5e3e aac7 a93e 28e3 6c3e
00000390: e56d 77be 8224 81be d561 f33c f00c 88be
000003a0: 21a1 a5bc 0078 acbe 9e3a bdbd e8bc a2bd
000003b0: 2bed afbd e190 a7be 86c2 a2be dd0b 623e
000003c0: 431c 4d3e 2de3 983d 0a0a 86be 0457 0bbd
000003d0: 561e 603e 1185 47be 58f6 af3e ab36 723d
000003e0: 68b0 b43c ea76 6b3e 98ab cd3d ac97 1ebe
000003f0: 23f0 733e 6d8c 033d 9a8d 8f3d 2615 273e

weight f4 [200, 400]
0.0027132027 0.0044540535 -0.025248995 -0.0038573735 -0.021302124 0.04228125 0.012171828 -0.028749768
-0.02385695 0.03408996 -0.030298125 0.033304382 0.034186028 -0.014158925 0.018424455 -0.04135971
-0.02959505 -0.0031154242 0.005003542 -0.012611996 0.0076002697 -0.04917479 0.047450792 0.002316067
-0.03639838 -0.049014594 -0.001635639 0.04552733 0.032799587 -0.043401416 0.038575698 -0.009801562
0.0045577446 0.032617327 -0.0097243525 -0.015021583 -0.023928722 0.00258834 0.046900284 0.040370017
0.02158836 0.034533422 0.026596064 0.0284406 -0.03572247 -0.04954961 0.0026005348 0.015568227
-0.030891929 -0.027390167 0.032145977 0.038675956 0.0013958581 -0.032151747 0.0072291004 -0.035669103
-0.033590425 -0.047854513 -0.038515244 -0.047592424 -0.048747897 -0.03597348 -0.028471358 -0.019756243
-0.019960536 0.0074509573 -0.0094008455 0.019500403 -0.03575365 0.022862837 0.033717882 -0.018726766
0.03287353 0.036949884 -0.009548423 -0.02976421 0.028012566 0.01949759 -0.0018198724 -0.009593517
0.02922395 0.014080562 0.04816065 0.02258861 0.031483695 -0.044820953 -0.024246281 0.036505464
-0.012927454 0.0026245634 -0.0380549 -0.04933197 -0.026712585 0.043934632 0.02042166 0.046970997
-0.025576923 -0.0044393023 0.016893007 0.048025306 -0.012288207 -0.033323824 0.025008213 0.046732347
-0.022946056 -0.045699265 0.029796803 0.016477386 -0.04605454 -0.049086753 0.03003061 0.0053964434
-0.016946135 -0.0073008253 -0.0075031435 0.041509815 0.03439803 -0.017824441 -0.0025791298 0.045432363
0.041157614 0.0307131 0.022951853 -0.04123582 -0.002725639 -0.011706816 0.03873189 0.02029427
-0.037593897 -0.017515603 0.025482375 -0.023012342 0.030727755 -0.01865581 0.013108855 0.04846203
0.033105273 -0.009002609 -0.021808166 0.016237583 0.009289764 0.010572062 0.049382053 0.039756548
0.027961528 0.028725687 -0.030213207 -0.04001785 0.024901599 0.026021136 0.005453234 0.023134097
0.02084974 0.04857894 -0.03714346 -0.030808782 -0.044684142 -0.0149871195 0.013455802 -0.033422958
-0.047064148 -0.0019540268 -0.009473853 -0.040523373 -0.043658838 -0.03319444 0.03814864 0.024358917
0.023939341 -0.043344665 -0.028876856 0.027118104 0.032380816 0.011876102 0.047307875 -0.04038465
-0.040469635 -0.019200096 -0.02533257 0.047596343 0.021421473 0.0046404647 0.030510977 -0.0056327768
-0.04429792 0.049224693 0.01587304 -0.041682627 -0.037567563 -0.04312855 0.000335048 0.030066129
-0.027590979 0.0138407145 0.038796324 -0.013097384 -0.019042095 0.042310376 -0.03910396 0.031518262
-0.014567838 0.04365657 0.032822505 0.002943152 -0.0016120259 0.026808111 0.0070991344 -0.015015836
-0.04628542 -0.04461688 0.031214856 -0.031181382 0.0058541317 0.048653726 0.04469397 0.024390915
-0.005958117 -0.038657565 -0.012733353 -0.0025847857 0.03638682 -0.016257301 0.008645584 0.010548971
-0.019758686 -0.017920226 0.0035057387 0.048312385 -0.044523884 -0.01515581 0.032851096 -0.0417396
-0.011640149 -0.030158566 0.035684485 0.008224583 0.03544737 0.005688173 0.007419903 0.0002947466
-0.04014519 -0.029417064 -0.0075370725 0.038691707 -0.013407936 -0.047952786 0.015828103 -0.019654956
-0.0076518366 -0.022155127 -0.039814766 -0.0060122074 -0.036213737 -0.050204463 -0.04929895 0.033940315
00000000: fdcf 313b 4ff3 913b fbd6 cebc fdcb 7cbb
00000010: cb81 aebc 1b2f 2d3d 596c 473c a284 ebbc
00000020: a76f c3bc eaa1 0b3d c633 f8bc 2d6a 083d
00000030: a606 0c3d d6fa 67bc e2ee 963c cd68 29bd
00000040: 5171 f2bc 252c 4cbb c1f4 a33b 8ca2 4ebc
00000050: af0b f93b 816b 49bd c35b 423d 28c9 173b
00000060: 7816 15bd 87c3 48bd f062 d6ba de7a 3a3d
00000070: dc58 063d afc5 31bd 8d01 1e3d bb96 20bc
00000080: 2259 953b bf99 053d e452 1fbc 161d 76bc
00000090: 2b06 c4bc 24a1 293b 831a 403d 085b 253d
000000a0: 13da b03c eb72 0d3d fddf d93c 43fc e83c
000000b0: ba51 12bd 88f4 4abd bc6d 2a3b e011 7f3c
000000c0: 1211 fdbc 5861 e0bc 80ab 033d ae6a 1e3d
000000d0: 3af5 b63a 8db1 03bd 17e2 ec3b c419 12bd
000000e0: 1d96 09bd 1803 44bd 29c2 1dbd 46f0 42bd
000000f0: e0ab 47bd ee58 13bd c43c e9bc d8d7 a1bc
00000100: 4784 a3bc 2927 f43b 0106 1abc 4fbf 9f3c
00000110: 6b72 12bd d84a bb3c c31b 0a3d e068 99bc
00000120: 65a6 063d c358 173d fd70 1cbc 13d4 f3bc
00000130: 9c7a e53c 69b9 9f3c c988 eeba 202e 1dbc
00000140: 1167 ef3c 28b2 663c 1a44 453d c00b b93c
00000150: 0cf5 003d 2d96 37bd 23a0 c6bc c186 153d
00000160: accd 53bc de00 2c3b 74df 1bbd 5210 4abd
00000170: 5ad4 dabc cdf4 333d 534b a73c a964 403d
00000180: b286 d1bc 9177 91bb 3463 8a3c 2fb6 443d
00000190: 7a54 49bc 907e 08bd 06de cc3c 6b6a 3f3d
000001a0: 5ef9 bbbc 272f 3bbd 6d18 f43c 95fb 863c
000001b0: afa3 3cbd 310f 49bd c102 f63c a6d4 b03b
000001c0: 9fd2 8abc c33b efbb eedc f5bb 3206 2a3d
000001d0: f3e4 0c3d 9004 92bc 9e06 29bb 4917 3a3d
000001e0: e394 283d 0a9a fb3c 8605 bc3c e4e6 28bd
000001f0: a2a0 32bb f2cd 3fbc 55a5 1e3d 2b40 a63c
00000200: 0ffc 19bd e27c 8fbc 6ac0 d03c 6184 bcbc
00000210: c6b8 fb3c 12d4 98bc 86c6 563c 1f80 463d
00000220: 6599 073d ae7f 13bc 0aa7 b2bc ae04 853c
00000230: 1834 183c 7136 2d3c d644 4a3d c3d7 223d
00000240: 930f e53c 2252 eb3c b081 f7bc c2e9 23bd
00000250: 70fe cb3c 472a d53c 0bb1 b23b b883 bd3c
00000260: 13cd aa3c b6fa 463d be23 18bd b362 fcbc
00000270: b806 37bd 898c 75bc b975 5c3c 83e6 08bd
00000280: 56c6 40bd 210f 00bb 3838 1bbc d6fb 25bd
00000290: 9cd3 32bd e5f6 07bd c041 1c3d 5a8c c73c
000002a0: 701c c43c 2d8a 31bd 288f ecbc c926 de3c
000002b0: bfa1 043d fb93 423c e7c5 413d 606a 25bd
000002c0: 7dc3 25bd 8549 9dbc 4086 cfbc 62f4 423d
000002d0: 167c af3c 0a0f 983b 28f2 f93c 2893 b8bb
000002e0: bc71 35bd d59f 493d 2d08 823c 67bb 2abd
000002f0: 72e0 19bd 90a7 30bd 62a9 af39 3e4d f63c
00000300: 7a06 e2bc 2ac4 623c e5e8 1e3d 6996 56bc
00000310: 2bfe 9bbc a54d 2d3d 792b 20bd 4b19 013d
00000320: f1ad 6ebc 3bd1 323d e470 063d e6e1 403b
00000330: 9d4a d3ba af9c db3c db9f e83b fb04 76bc
00000340: c895 3dbd 31c0 36bd 4cb6 ff3c 1970 ffbc
00000350: 04d4 bf3b 2149 473d 0611 373d 75cf c73c
00000360: 4f3c c3bb 6557 1ebd 8e9f 50bc 8265 29bb
00000370: 590a 153d 082e 85bc 35a6 0d3c 97d5 2c3c
00000380: f8dc a1bc 70cd 92bc 89c0 653b 35e3 453d
00000390: ad5e 36bd 1350 78bc df8e 063d 25f7 2abd
000003a0: 53b6 3ebc 190f f7bc e529 123d 67c0 063c
000003b0: 4331 113d db63 ba3b a822 f33b 3888 9a39
000003c0: 486f 24bd 0efc f0bc 8cf9 f6bb 327b 1e3d
000003d0: f6ac 5bbc 246a 44bd f0a9 813c 6e03 a1bc
000003e0: 42bc fabb ab7e b5bc cf14 23bd 0d02 c5bb
000003f0: db54 14bd 32a3 4dbd b2ed 49bd 0005 0b3d

bias f4 [200]
-0.004461459 -0.003971346 -0.0318775 0.028466107 -0.026967317 0.055278018 -0.0031965566 -0.018215138
-0.018873887 0.026465254 -0.007376633 0.008885234 0.05048472 -0.00050835224 -0.016360246 0.021411883
0.028818546 -0.005820319 0.005640868 0.0071187755 -0.05026304 -0.038109146 0.02725149 -0.012222568
0.025236383 0.01537986 -0.010308409 -0.048992943 -0.017853662 -0.043044582 -0.021702679 -0.045184325
-0.03336964 -0.035596833 -0.0014013089 0.026931973 0.005385712 -0.037720364 0.05131742 -0.005939871
0.041104816 0.043678667 -0.038863115 -0.020717902 -0.015183629 -0.039140347 0.0003680409 0.013750772
-0.01900953 0.027705606 -0.02042409 -0.017524699 -0.027822753 -0.0028203083 -0.036437906 -0.036289703
0.019486792 -0.04123945 -0.040080365 -0.030142367 0.04235675 0.006888051 -0.00028179027 -0.00058628555
0.003920245 -0.047100425 -0.047688954 0.013494888 -0.007123212 0.025544407 -0.040073425 0.05585225
-0.007724774 0.016227866 0.016372642 0.04716734 -0.013090962 -0.012546136 0.015422998 -0.004436543
-0.044817455 -0.03425573 0.030034425 -0.027395122 0.009282302 -0.018005626 0.031620074 0.036753032
0.05192116 0.018740112 -0.030609058 -0.030821728 -0.039854158 0.04855952 0.003323389 -0.024830228
-0.006299759 0.040486664 0.042071942 0.024683116 0.03431897 0.025802253 0.036559038 -0.015059121
-0.03782751 -0.0332625 -0.006659021 -0.038872525 -0.00067726005 -0.010326015 0.052649535 0.0045453934
0.034955453 0.050393876 0.017446848 0.038605344 0.011396792 0.047254898 0.0068045743 -0.003418604
0.024633743 -0.016554212 0.012786185 -0.016704958 -0.0053464267 0.013980095 -0.011084297 -0.0049989773
0.004572957 0.010750369 0.04424158 -0.0016915775 0.045228697 -0.024559703 -0.044953853 -0.025556505
-0.02557175 -0.026559459 -0.026237352 0.0136175975 -0.015458398 0.033301607 -0.008989529 -0.038696624
0.034648057 0.0027128549 0.031572863 0.016817149 -0.04315819 0.009549742 0.010730242 -0.022815853
-0.037282076 0.037578966 -0.047325008 -0.001961196 0.03487997 -0.021659369 0.0037480665 0.03740922
0.045812 0.007826221 -0.022278521 0.05012346 0.034394234 -0.015005419 0.03288728 -0.0035294546
-0.0068111005 -0.041765038 -0.006888405 0.02901 0.024655687 0.022531223 -0.015454831 0.0046095555
0.01798736 -0.042830404 -0.0009705112 -0.04066073 0.0073006246 0.01362438 0.042557452 -0.045528106
0.046641223 0.04721435 0.038236406 -0.039881147 -0.00607689 0.0011101059 -0.016719941 -0.026590325
-0.03598389 -0.0003418501 0.031952124 0.018157797 -0.016866863 0.00019855797 0.048723858 0.03255333
00000000: 6e31 92bb 1122 82bb fb91 02bd c131 e93c
00000010: 90ea dcbc 346b 623d 527d 51bb ea37 95bc
00000020: 699d 9abc a9cd d83c afb7 f1bb 5f93 113c
00000030: 11c9 4e3d f142 05ba ec05 86bc f967 af3c
00000040: df14 ec3c 60b8 bebb 08d7 b83b 9e44 e93b
00000050: 9ee0 4dbd 5618 1cbd 843e df3c 2a41 48bc
00000060: 88bc ce3c cffb 7b3c 9ae4 28bc d3ac 48bd
00000070: d841 92bc 844f 30bd d1c9 b1bc 3313 39bd
00000080: 9bae 08bd fccd 11bd 20ac b7ba 71a0 dc3c
00000090: a07a b03b ab80 1abd 3732 523d 40a3 c2bb
000000a0: 865d 283d 67e8 323d ee2e 1fbd 97b8 a9bc
000000b0: c1c4 78bc a151 20bd 9df5 c039 eb4a 613c
000000c0: e0b9 9bbc def6 e23c 6c50 a7bc f58f 8fbc
000000d0: 8bec e3bc ecd4 38bb ea3f 15bd 83a4 14bd
000000e0: c4a2 9f3c b3ea 28bd 4f2b 24bd 20ed f6bc
000000f0: 467e 2d3d 29b5 e13b 40bd 93b9 f5b0 19ba
00000100: 6675 803b 60ec 40bd 7e55 43bd aa19 5d3c
00000110: d569 e9bb 8142 d13c 0824 24bd 54c5 643d
00000120: 1a20 fdbb 4df0 843c eb1f 863c 8a32 413d
00000130: 797b 56bc 4f8e 4dbc beb0 7c3c 6c60 91bb
00000140: 8292 37bd bd4f 0cbd c10a f63c bc6b e0bc
00000150: cc14 183c 8980 93bc 0d84 013d 598a 163d
00000160: 48ab 543d dd84 993c d9bf fabc d97d fcbc
00000170: 1d3e 23bd 59e6 463d 37cd 593b c368 cbbc
00000180: 356e cebb 58d5 253d a153 2c3d 3f34 ca3c
00000190: 0c92 0c3d 3f5f d33c eebe 153d 88ba 76bc
000001a0: 05f1 1abd 423e 08bd eb33 dabb cc38 1fbd
000001b0: 278a 31ba 722e 29bc 0aa7 573d 86f1 943b
000001c0: 732d 0f3d cf69 4e3d b1ec 8e3c a320 1e3d
000001d0: 9cb9 3a3c 5a8e 413d e8f8 de3b a80a 60bb
000001e0: b4cc c93c b39c 87bc 267d 513c d6d8 88bc
000001f0: 1431 afbb c50c 653c e99a 35bc 76ce a3bb
00000200: bed8 953b 5122 303c a936 353d ecb7 ddba
00000210: ba41 393d 6e31 c9bc 8821 38bd e05b d1bc
00000220: d97b d1bc 3993 d9bc b7ef d6bc 581c 5f3c
00000230: 3845 7dbc 4467 083d d148 13bc 5a80 1ebd
00000240: 1feb 0d3d 27ca 313b 8c52 013d 1ec4 893c
00000250: a4c6 30bd 8576 1c3c e6cd 2f3c 50e8 babc
00000260: 17b5 18bd 67ec 193d ded7 41bd 6987 00bb
00000270: 4dde 0e3d fd6e b1bc 1fa2 753b 693a 193d
00000280: 5da5 3b3d 8d39 003c 7281 b6bc 424e 4d3d
00000290: f8e0 0c3d 4ad9 75bc d0b4 063d 6c4e 67bb
000002a0: a72f dfbb d111 2bbd 21b8 e1bb 61a6 ed3c
000002b0: b9fa c93c 6693 b83c 4236 7dbc c10b 973b
000002c0: 3a5a 933c ef6e 2fbd e769 7eba de8b 26bd
000002d0: 143a ef3b cb38 5f3c b950 2e3d ae7b 3abd
000002e0: de0a 3f3d d663 413d c79d 1c3d 6a5a 23bd
000002f0: a620 c7bb f980 913a 42f8 88bc f4d3 d9bc
00000300: d863 13bd 583a b3b9 3be0 023d a9bf 943c
00000310: 602c 8abc 0034 5039 ab92 473d a456 053d

weight f4 [2, 200]
0.03146073 0.060794115 -0.004376355 -0.06688187 0.04987791 -0.053994764 0.03363631 -0.029002255
0.02156735 0.05456388 -0.017857602 0.022581644 -3.0367955e-05 0.047863677 0.017823312 -0.024037955
-0.04179419 0.068868674 -0.08148786 -0.05093571 -0.038909998 0.047399446 -0.08393557 0.056155473
0.038794987 -0.06512444 -0.0457055 -0.034471385 0.07476755 -0.05497934 0.03814061 0.049031258
0.044515967 -0.015076037 -0.08598699 0.07920945 -0.07086071 0.008406979 -0.0017842265 0.012238473
-0.04447458 0.058024924 -0.034366496 -0.056126736 -0.03296511 0.008765383 0.016096367 0.0701504
0.03801393 -0.07670192 0.041042786 0.017235126 -0.037127163 -0.018801106 0.06734735 -0.009426178
-0.08692778 -0.044131987 0.036086924 -0.025781289 0.033875134 -0.08070085 0.06283804 -0.0042178542
-0.07688243 -0.02098009 -0.053003777 0.008808431 -0.035256334 -0.026979743 0.026144702 0.032175295
-0.005293053 0.04972407 0.067114204 -0.032937616 -0.008452582 -0.070378594 -0.03777447 -0.0045251884
-0.07097551 0.075295664 0.0659799 -0.07053341 0.014321466 -0.043013632 -0.01361393 0.053180188
0.024544071 0.07440285 0.042743307 0.06380611 0.036832534 0.07095449 0.03633717 0.05345777
-0.043810204 -0.011636872 -0.04077349 0.05794253 -0.06563156 -0.046440996 0.038999036 0.06413001
0.0047957334 0.0076471167 0.08474045 -0.018995509 -0.048753574 0.075513646 -0.013337605 -0.06309571
-0.078169495 -0.009676548 0.013119452 -0.061106548 0.06376505 -0.082887284 -0.0837629 0.008784936
0.06229095 -0.05608426 0.06703646 0.034343783 -0.030810434 0.023595134 0.0005897767 -0.018547544
0.07718384 -0.05682076 0.008242557 -0.054157294 0.06736312 0.01430894 0.043001972 -0.054362856
-0.023880571 0.053376243 0.031842154 0.0077681188 -0.007631601 -0.054531693 0.049498495 -0.031482704
0.027804429 -0.08200707 0.045349166 -0.053249005 0.016199522 0.030896053 -0.01944776 0.072690174
-0.0023589754 0.043799836 0.023634728 0.039781198 0.022697458 0.0043873624 0.011050775 0.016744781
0.0060715927 0.03306324 0.028242264 0.041451346 -0.026600482 0.009310761 -0.009059658 -0.092377536
-0.05820328 -0.08481892 0.044610016 0.08757536 -0.08983037 -0.043345243 0.026998028 -0.07830675
0.035524245 0.016201723 -0.0911652 0.06309815 0.055555943 -0.03072612 0.05350686 -0.003039552
-0.017846724 0.049121607 0.031748816 -0.036106624 -0.048033047 0.010761084 -0.023275832 -0.05760759
-0.03574488 -0.043251615 -0.029236117 -0.0033644221 -0.06881836 0.07086624 -0.0202814 -0.012568885
0.062358286 0.03207652 0.06872525 -0.04735159 -0.0074216514 -0.032254178 -0.069640875 0.054821998
-0.054708287 0.031007366 0.04753171 -0.07751598 -0.0727526 -0.04838919 0.020049248 0.011701334
0.075423874 -0.044266876 -0.068892255 0.014040312 0.05470124 -0.02363885 0.046167582 -0.06896694
-0.023137748 0.03166573 -0.06610123 -0.036853623 -0.06871331 -0.042991646 -0.012524755 -0.0056515336
-0.07120937 0.029579286 -0.07866013 -0.0050650146 -0.02474132 -0.069295384 -0.050549977 0.051157907
0.021930447 0.08172858 -0.08128879 0.046421524 0.040712766 0.042906012 -0.047030803 0.07572474
0.0033858586 -0.028287906 0.07212207 -0.08181935 -0.045453202 -0.015079062 -0.051231377 0.04700293
00000000: f7dc 003d 4003 793d 8767 8fbb 5df9 88bd
00000010: c84c 4c3d 9d29 5dbd 3ac6 093d 2396 edbc
00000020: 03ae b03c 607e 5f3d 1b4a 92bc 24fd b83c
00000030: b0be feb7 b40c 443d 3202 923c 3feb c4bc
00000040: 6230 2bbd 050b 8d3d 1be3 a6bd f7a1 50bd
00000050: 1760 1fbd ec25 423d 6ae6 abbd 4803 663d
00000060: 7ee7 1e3d f65f 85bd b135 3bbd de31 0dbd
00000070: bb1f 993d 0432 61bd 5439 1c3d 00d5 483d
00000080: 6056 363d 7b01 77bc f219 b0bd 9038 a23d
00000090: 6c1f 91bd 6dbd 093c b5dc e9ba e083 483c
000000a0: fa2a 36bd 8bab 6d3d e2c3 0cbd 26e5 65bd
000000b0: 6c06 07bd ae9c 0f3c 87dc 833c 03ab 8f3d
000000c0: 7fb4 1b3d e515 9dbd 7b1c 283d ae30 8d3c
000000d0: a712 18bd c704 9abc 68ed 893d 4270 1abc
000000e0: 3107 b2bd bec3 34bd e2cf 133d 4833 d3bc
000000f0: a7c0 0a3d 7d46 a5bd 3bb1 803d ed35 8abb
00000100: 8974 9dbd 70de abbc 7d1a 59bd 3d51 103c
00000110: f268 10bd 9f04 ddbc 6a2d d63c 3eca 033d
00000120: 5971 adbb 77ab 4b3d 2c73 893d 98e9 06bd
00000130: b37c 0abc a722 90bd 67b9 1abd 0848 94bb
00000140: 9c5b 91bd 9d34 9a3d 7820 873d d273 90bd
00000150: 95a4 6a3c 102f 30bd f60c 5fbc 78d3 593d
00000160: a610 c93c 8560 983d 9b13 2f3d c7ac 823d
00000170: b6dd 163d 9650 913d 49d6 143d 89f6 5a3d
00000180: 5472 33bd 94a8 3ebc 1a02 27bd 2555 6d3d
00000190: d769 86bd ea38 3ebd 74bd 1f3d 9856 833d
000001a0: 8725 9d3b aa94 fa3b 678c ad3d 789c 9bbc
000001b0: d4b1 47bd e6a6 9a3d f885 5abc 5338 81bd
000001c0: 5417 a0bd 628a 1ebc f8f2 563c dc4a 7abd
000001d0: 4097 823d cfc0 a9bd e28b abbd b1ee 0f3c
000001e0: cc24 7f3d 9cb8 65bd 694a 893d 11ac 0c3d
000001f0: 2a66 fcbc 954a c13c 3f9b 1a3a 05f1 97bc
00000200: 9012 9e3d e3bc 68bd ca0b 073c 0ad4 5dbd
00000210: adf5 893d 0b70 6a3c d622 303d 96ab 5ebd
00000220: 30a1 c3bc 0ca1 5a3d eb6c 023d b48b fe3b
00000230: 8212 fabb a05c 5fbd efbe 4a3d 02f4 00bd
00000240: 1dc6 e33c 53f3 a7bd 0cc0 393d a11b 5abd
00000250: dcb4 843c b819 fd3c e950 9fbc 96de 943d
00000260: 0a99 1abb 7567 333d 9e9d c13c 9cf1 223d
00000270: 05f0 b93c ddc3 8f3b 4f0e 353c 5a2c 893c
00000280: 36f4 c63b 526d 073d 525c e73c e3c8 293d
00000290: 41e9 d9bc 298c 183c f66e 14bc 6f30 bdbd
000002a0: 9066 6ebd 8bb5 adbd feb8 363d b65a b33d
000002b0: fcf8 b7bd c88a 31bd f82a dd3c 4a5f a0bd
000002c0: df81 113d 7ab9 843c d2b4 babd 9a39 813d
000002d0: a18e 633d 58b5 fbbc 022a 5b3d 3833 47bb
000002e0: 4b33 92bc bd33 493d 0c0b 023d 8ae4 13bd
000002f0: 4dbe 44bd 424f 303c f5ac bebc f0f5 6bbd
00000300: 3969 12bd 9b28 31bd 9580 efbc a37d 5cbb
00000310: a4f0 8cbd 5222 913d 2e25 a6bc baed 4dbc
00000320: 676b 7f3d ab62 033d d3bf 8c3d bef3 41bd
00000330: 5331 f3bb f51c 04bd e09f 8ebd 088d 603d
00000340: cc15 60bd 2903 fe3c 9cb0 423d b3c0 9ebd
00000350: 51ff 94bd be33 46bd 523e a43c f4b6 3f3c
00000360: d577 9a3d 2f51 35bd 6217 8dbd 5609 663c
00000370: 680e 603d 43a6 c1bc 381a 3d3d 8a3e 8dbd
00000380: 608b bdbc edb3 013d 1560 87bd d3f3 16bd
00000390: 90b9 8cbd 0218 30bd a134 4dbc 8030 b9bb
000003a0: 38d6 91bd 4250 f23c 9018 a1bd 6cf8 a5bb
000003b0: 4fae cabc bdea 8dbd 7e0d 4fbd f48a 513d
000003c0: 7ba7 b33c 5061 a73d bd7a a6bd 7f24 3e3d
000003d0: 6ec2 263d 37be 2f3d 5fa3 40bd 9315 9b3d
000003e0: 48e5 5d3b 0abc e7bc bcb4 933d e790 a7bd
000003f0: 232d 3abd 2c0e 77bc fed7 51bd 2586 403d

bias f4 [2]
-0.051318705 -0.030517977
00000000: 9033 52bd d600 fabc

weight f4 [200, 400]
-0.002751627 0.021769563 0.064614125 -0.025922455 0.036266137 0.027604382 0.001891018 0.030550405
0.04035102 0.018904414 0.049053844 -0.044916153 0.055772826 -0.036269903 0.0063625695 0.029213598
-0.0004143603 -0.017058726 -0.0035166014 -0.011667618 -0.03941196 -0.0014857987 -0.014563793 0.04318019
0.044725604 0.03194914 -0.035290025 -0.010606205 0.048413638 -0.01673138 0.02560102 0.0071962215
0.043525722 0.030644232 -0.005729431 -0.01977163 0.010375908 -0.034748215 -0.030618636 -0.02533679
0.024633935 0.0059787156 -0.03085941 -0.015768813 0.029123046 -0.004392727 0.063862264 0.04859388
0.0107681705 -0.03573056 0.011256202 0.0030179147 0.03433343 0.042371742 0.047710538 0.05961532
0.04227721 0.009426861 0.012511796 -0.02594532 -0.0069621014 -0.0021082552 -0.0016174917 0.009824697
0.05612356 0.04062621 0.019205246 0.034034796 0.024627151 0.031282295 -0.030700533 0.03845645
-0.03126837 -0.0050168056 -0.023771754 0.0029798187 -0.004290736 -0.018083649 -0.015881622 0.043752875
0.050388817 -0.037278987 -0.021213295 0.01096766 0.044924214 -0.0022843126 0.055430945 0.0007357543
0.009744942 -0.01906667 0.042200275 0.018921427 0.02823697 0.051822074 0.013924932 -0.042717416
0.025895327 0.0524169 -0.036072087 -0.035062157 0.020077959 0.04178119 0.019295583 0.014097056
0.025040543 0.044748753 -0.0007534948 -0.025304254 0.018103672 0.059951965 0.004609459 -0.02765328
-0.013509524 0.049662698 0.016816752 0.06122757 0.0161006 0.0059920875 0.023759915 0.0008098984
0.035455897 -0.0339838 -0.03446287 0.03958423 -0.04194169 0.05235921 0.05987576 -0.044892542
0.002793377 0.0096092345 0.027367918 -0.036827806 -0.007232697 -0.0144523 -0.0278794 0.02382717
-0.041978907 0.053540584 0.00270855 0.04302547 -0.032454208 0.033878054 0.028741546 -0.03833686
-0.027588388 -0.036778294 0.03966411 -0.0383146 0.041068144 -0.03350229 -0.008521348 0.015077326
0.04570692 -0.00012544755 -0.03452509 0.00097063393 -0.01595522 -0.024576675 -0.019970635 0.00738089
0.048354145 0.046168122 -0.030844815 -0.028842371 -0.014822212 -0.027744208 0.0494121 -0.027855368
-0.02756307 0.05040138 -0.010047076 -0.022986658 0.012908291 -0.001898617 0.001630655 0.004857442
0.032991398 0.016336957 -0.017496616 0.05598559 0.021521287 0.024719195 -0.031542804 0.05199346
0.04760048 0.0075736274 0.0055734934 -0.009175372 0.01427403 0.012216789 0.009799454 0.051576547
-0.029753752 0.051819876 0.038288128 -0.015197519 0.038072556 0.04678278 0.03522523 0.019277917
0.04278712 0.041103728 0.051529016 0.020464057 0.05409753 0.03545217 0.011580549 0.051531147
1.3073342e-05 -0.010463395 0.003239198 0.012753398 -0.023277674 0.010411434 -0.0070733964 -0.009355541
0.018018313 -0.011850886 0.00802031 0.028091159 -0.021840965 0.033881113 -0.036478028 -0.012119684
0.02211476 0.036690302 -0.015999805 -0.0090632 0.047886826 -0.03041505 -2.078255e-05 -0.026084732
-0.025670776 -0.0301661 -0.028079145 0.03189687 0.011049315 0.005237964 0.027484829 -0.013242811
-0.03568892 0.01778852 0.004538465 -0.02342168 0.0015385087 -0.003708361 -0.0016749717 0.041602407
-0.0059170946 0.001467574 0.04013405 -0.022914415 -0.0016869566 -0.0037306915 0.037275884 0.058249522
00000000: a454 34bb 1556 b23c 6954 843d 545b d4bc
00000010: cd8b 143d 9622 e23c 09dc f73a d844 fa3c
00000020: 1c47 253d 6edd 9a3c afec 483d 00fa 37bd
00000030: 0c72 643d c08f 14bd 1a7d d03b 5b51 ef3c
00000040: 7f3e d9b9 bebe 8bbc c876 66bb 8929 3fbc
00000050: 6f6e 21bd 22bf c2ba fa9c 6ebc b6dd 303d
00000060: 3232 373d 1add 023d 468c 10bd a6c5 2dbc
00000070: 614d 463d 3f10 89bc 3bb9 d13c 48ce eb3b
00000080: 0748 323d 9d09 fb3c f3bd bbbb 1df8 a1bc
00000090: b6ff 293c 2554 0ebd efd3 fabc 1a8f cfbc
000000a0: 1bcd c93c 1ae9 c33b e0cc fcbc 992d 81bc
000000b0: 7493 ee3c ddf0 8fbb 38ca 823d 600a 473d
000000c0: fb6c 303c 355a 12bd ef6b 383c 35c8 453b
000000d0: 36a1 0c3d fe8d 2d3d 206c 433d 322f 743d
000000e0: de2a 2d3d 1f73 1a3c 47fe 4c3c 488b d4bc
000000f0: 5722 e4bb a72a 0abb 0402 d4ba c4f7 203c
00000100: d1e1 653d ab67 263d 5254 9d3c 1268 0b3d
00000110: e1be c93c dd21 003d af7f fbbc 8384 1d3d
00000120: 4313 00bd 0464 a4bb fbbc c2bc 1049 433b
00000130: 4d99 8cbb 2924 94bc 2d1a 82bc 3736 333d
00000140: 8164 4e3d dab1 18bd 81c7 adbc b3b1 333c
00000150: 7402 383d 68b4 15bb 8f0b 633d a3df 403a
00000160: 40a9 1f3c b531 9cbc 32da 2c3d 1c01 9b3c
00000170: 3851 e73c 6243 543d 6625 643c 75f8 2ebd
00000180: 7022 d43c 1ab3 563d 53c0 13bd 569d 0fbd
00000190: 887a a43c c122 2b3d c511 9e3c 57f7 663c
000001a0: d321 cd3c 784a 373d 2e86 45ba de4a cfbc
000001b0: 274e 943c 3190 753d f20a 973b 2289 e2bc
000001c0: 0d57 5dbc 1d6b 4b3d 49c3 893c c3c9 7a3d
000001d0: 68e5 833c 4659 c43b 27a4 c23c 5d4f 543a
000001e0: 343a 113d 9932 0bbd f028 0dbd 1323 223d
000001f0: 0dcb 2bbd 9c76 563d 4940 753d 3ee1 37bd
00000200: 1711 373b 0d70 1d3c af32 e03c c1d8 16bd
00000210: 4300 edbb 57c9 6cbc 5763 e4bc 3231 c33c
00000220: 13f2 2bbd 5f4d 5b3d ee81 313b 7a3b 303d
00000230: b4ee 04bd b7c3 0a3d 6473 eb3c 1c07 1dbd
00000240: 0b01 e2bc d6a4 16bd d576 223d c5ef 1cbd
00000250: 1237 283d b239 09bd 209d 0bbc e406 773c
00000260: 2e37 3b3d 928a 03b9 2e6a 0dbd 2472 7e3a
00000270: 86b4 82bc 0655 c9bc 7599 a3bc 65db f13b
00000280: ff0e 463d c91a 3d3d 44ae fcbc d646 ecbc
00000290: ddd8 72bc d247 e3bc 5864 4a3d f130 e4bc
000002a0: f3cb e1bc ad71 4e3d 7e9c 24bc 844e bcbc
000002b0: 4c7d 533c 04db f8ba b4bb d53a 2d2b 9f3b
000002c0: fd21 073d 15d5 853c 1055 8fbc 2551 653d
000002d0: 694d b03c e97f ca3c 0733 01bd 18f7 543d
000002e0: b9f8 423d 312c f83b daa1 b63b 4d54 16bc
000002f0: 9fdd 693c ed28 483c e48d 203c ee41 533d
00000300: 24be f3bc 1441 543d 03d4 1c3d 04ff 78bc
00000310: f8f1 1b3d 4d9f 3f3d 5548 103d b9ec 9d3c
00000320: 8c41 2f3d 625c 283d 1710 533d 3da4 a73c
00000330: 5f95 5d3d 4b36 113d 58bc 3d3c 5312 533d
00000340: 9455 5b37 a96e 2bbc b948 543b a1f3 503c
00000350: d2b0 bebc b894 2a3c f3c7 e7bb fc47 19bc
00000360: 249b 933c 382a 42bc 9e67 033c 6e1f e63c
00000370: d3eb b2bc ecc6 0a3d fc69 15bd a491 46bc
00000380: 032a b53c 9248 163d 0612 83bc d17d 14bc
00000390: fa24 443d fc28 f9bc 3056 aeb7 a6af d5bc
000003a0: 854b d2bc e61e f7bc 3c06 e6bc 4ba6 023d
000003b0: 3008 353c 3aa3 ab3b dd27 e13c 60f8 58bc
000003c0: 8c2e 12bd 3bb9 913c 67b7 943b d3de bfbc
000003d0: c9a7 c93a f907 73bb b98a dbba 4967 2a3d
000003e0: 30e4 c1bb 9d5b c03a 9a63 243d 03b7 bbbc
000003f0: df1c ddba 9e7e 74bb 99ae 183d 0d97 6e3d

bias f4 [200]
-0.0116170505 -0.04536036 -0.033824462 0.0026328685 -0.0070209303 0.046845105 -0.021087492 0.045515552
0.029088546 0.029616486 -0.026868781 -0.026739726 0.048234113 0.0073136855 -0.015152054 -0.032234292
0.050417546 0.0037315632 0.062437832 -0.011308795 0.018391766 -0.038141616 0.0455316 0.0008271818
0.01257728 -0.025239602 0.034601483 0.011375455 -0.008201726 -0.034331866 -0.036157712 0.005579397
-0.051662732 -0.0138935195 0.014664514 0.04740321 -0.028210104 -0.011105379 0.0083749145 -0.046570074
0.061858095 0.03731903 -0.011010028 0.030287879 -0.045857366 0.046379253 0.04929512 0.003690996
-0.035778333 -0.03360756 0.01648425 -0.039466225 -0.023911798 0.0389911 0.050494764 0.016259085
0.016149484 0.057904027 0.04665907 -0.032231957 0.044425573 0.04534182 0.06360793 0.02818933
0.04453654 0.045531675 0.041066274 0.019916302 0.022954224 -0.015628375 0.035383865 0.022148801
-0.042311452 -0.039350387 -0.04221588 -0.024186112 0.0048866505 -0.033332948 0.008950669 0.024129853
0.04128143 0.024653783 -0.041222397 0.025794337 0.038858257 -0.027663987 0.038129315 -0.02548835
0.040098477 0.04890965 0.019134078 0.034811355 -0.034954004 0.013390446 -0.011081688 -0.007818979
-0.025852283 0.045973238 -0.0046420568 -0.027526641 -0.046949107 -0.0032361613 -0.032677345 -0.010457853
-0.044511482 -0.051952932 0.04079532 -0.051492702 -0.0440805 0.0316629 0.04298716 0.01297481
0.020460144 -0.037085753 -0.009397011 0.01760569 0.046466336 -0.047919262 0.019805325 -0.051567685
-0.015286448 -0.018774778 -0.011005599 -0.047095634 -0.022673458 -0.022678118 0.061103765 0.032344118
0.011556386 -0.03214243 -0.005062872 0.024996247 0.05694349 -0.032494724 0.013887629 0.048808675
-0.042875495 0.04025085 -0.00063954614 0.04551384 0.004346578 -0.01740079 0.002848529 -0.011155514
0.0022448478 -0.029136086 -0.018480094 0.0174453 0.028764592 0.013033687 -0.024299515 -0.030032462
0.031063281 -0.014505639 0.03548405 0.0034011772 -0.02759749 0.042146116 0.0015974648 -0.02806935
-0.029479446 -0.03342084 0.00467363 0.043582805 0.033567265 -0.028436217 0.010174345 0.040440567
-0.025065536 0.028338369 -0.030860411 0.011461661 -0.044866808 -0.026871525 0.02798279 -0.004747772
0.008053539 -0.0054628793 -0.032929536 0.02703839 0.02171558 -0.009704366 -0.0045863315 -0.046953812
0.029207258 0.020268168 -0.03849887 0.01746307 0.039565388 0.029141193 -0.03485929 -0.007727042
-0.03917176 0.0049445014 -0.011833162 0.0007599052 0.06250336 0.038213298 0.024802605 0.029172076
00000000: 7155 3ebc c9cb 39bd 858b 0abd 348c 2c3b
00000010: d50f e6bb a7e0 3f3d adbf acbc 846e 3a3d
00000020: 1a4b ee3c 469e f23c eb1b dcbc 450d dbbc
00000030: 2291 453d a4a7 ef3b 5240 78bc 1b08 04bd
00000040: a182 4e3d 3e8d 743b d0be 7f3d 8648 39bc
00000050: 54aa 963c 623a 1cbd 587f 3a3d 3bd7 583a
00000060: f010 4e3c 48c3 cebc 49ba 0d3d 1e60 3a3c
00000070: 8860 06bc 929f 0cbd 1c1a 14bd 60d3 b63b
00000080: 4d9c 53bd a5a1 63bc 6e43 703c de29 423d
00000090: e018 e7bc 56f3 35bc f036 093c 43c0 3ebd
000000a0: ea5e 7d3d d7db 183d 6863 34bc 491e f83c
000000b0: efd4 3bbd 2cf8 3d3d aee9 493d a3e4 713b
000000c0: 4d8c 12bd 15a8 09bd fa09 873c 56a7 21bd
000000d0: ade2 c3bc 22b5 1f3d 99d3 4e3d c631 853c
000000e0: ec4b 843c c62c 6d3d 951d 3f3d a805 04bd
000000f0: 97f7 353d 58b8 393d e044 823d 4fed e63c
00000100: f26b 363d 6c7f 3a3d 1c35 283d 8327 a33c
00000110: 7f0a bc3c 1407 80bc acee 103d 6771 b53c
00000120: c64e 2dbd df2d 21bd 8fea 2cbd f421 c6bc
00000130: 3220 a03b 2188 08bd d4a5 123c f8ab c53c
00000140: b716 293d bbf6 c93c d1d8 28bd a54e d33c
00000150: d629 1f3d 969f e2bc 7c2d 1c3d f2cc d0bc
00000160: 4d3e 243d 7c55 483d 12bf 9c3c 5a96 0e3d
00000170: ee2b 0fbd 9a63 5b3c f88f 35bc 2d1b 00bc
00000180: 2bc8 d3bc 6f4e 3c3d 651c 98bb 8d7f e1bc
00000190: b54d 40bd c715 54bb aed8 05bd 6a57 2bbc
000001a0: ac51 36bd 99cc 54bd fe18 273d 03ea 52bd
000001b0: c18d 34bd f5b0 013d 4e13 303d 4c94 543c
000001c0: 089c a73c 3be7 17bd ecf5 19bc cf39 903c
000001d0: 7c53 3e3d fd46 44bd c73e a23c a338 53bd
000001e0: 0374 7abc 90cd 99bc d450 34bc 5ae7 40bd
000001f0: b0bd b9bc 76c7 b9bc f147 7a3d 447b 043d
00000200: ff56 3d3c c8a7 03bd 73e6 a5bb eec4 cc3c
00000210: 943d 693d 3019 05bd f088 633c 9beb 473d
00000220: 379e 2fbd 13de 243d 37a7 27ba b86c 3a3d
00000230: bd6d 8e3b 1a8c 8ebc 63ae 3a3b 9ec5 36bc
00000240: 4c1e 133b cdae eebc 9163 97bc 72e9 8e3c
00000250: b9a3 eb3c 3f8b 553c c70f c7bc a306 f6bc
00000260: 6c78 fe3c 0fa9 6dbc b957 113d 49e6 5e3b
00000270: 2214 e2bc 68a1 2c3d 0662 d13a b2f1 e5bc
00000280: e17e f1bc 4ae4 08bd 4025 993b e283 323d
00000290: d47d 093d 12f3 e8bc 4cb2 263c 02a5 253d
000002a0: 3d56 cdbc de25 e83c f9ce fcbc b1c9 3b3c
000002b0: 42c6 37bd ac21 dcbc 2a3c e53c 3393 9bbb
000002c0: fef2 033c f401 b3bb 1fe1 06bd 9d7f dd3c
000002d0: dfe4 b13c 10ff 1ebc f048 96bb a452 40bd
000002e0: 0f44 ef3c 6e09 a63c feb0 1dbd b60e 8f3c
000002f0: 510f 223d 83b9 ee3c 9dc8 0ebd 2033 fdbb
00000300: 9172 20bd 7c05 a23b e1df 41bc 6034 473a
00000310: c301 803d 8c85 1c3d d52e cb3c 47fa ee3c

weight f4 [2, 200]
-0.07645396 0.046379313 -0.04838577 -0.07905714 0.038171783 -0.020299302 0.025808832 0.06389582
-0.0642866 -0.013602652 -0.04027581 0.032421336 -0.01478862 -0.04617173 -0.05259357 0.037909888
-0.044942636 0.03418263 -0.06365265 0.052157164 -0.040676635 -0.019376442 -0.07589442 0.06362104
-0.020588772 -0.041604687 0.033720642 0.017551556 -0.0560168 -0.039876867 -0.07254433 0.04188966
-0.06755701 0.05665337 -0.034631103 0.024420632 -0.029913297 0.046246108 -0.0055129947 0.068268515
-0.046978947 -0.046366487 -0.033048406 -0.021446561 0.056699656 0.031371377 0.0555291 0.05327944
0.036490552 -0.061307028 0.020206887 0.028693464 -0.021598225 -0.06732755 -0.021762786 -0.047919843
0.04683744 -0.026898744 -0.07079164 0.064564906 -0.0025624167 -0.05106212 -0.049070757 -0.009707916
-0.07811711 -0.028316455 -0.071933195 0.037866384 -0.046030134 0.032177728 -0.05204745 -0.06850506
0.042439464 0.051122285 -0.06246042 0.021306945 0.008688267 0.027469601 0.03283828 0.04968301
0.07155687 -0.068496406 -0.06200904 -0.017890451 -0.07978801 -0.0076726223 0.058299415 0.060716484
-0.07213028 -0.03453429 -0.056549415 0.02166378 -0.065609396 0.010655991 0.011656851 -0.029227054
0.038482204 -0.00835235 0.014777447 -0.024000177 0.053294506 -0.004497513 -0.009413309 0.030357918
-0.042301886 0.056361362 -0.06394655 -0.049177248 -0.036001675 -0.06515234 -0.05369349 0.02002656
0.029281387 0.016072566 -0.047968507 0.01018217 -0.014061954 -0.05055386 0.05510844 0.05740749
0.06482203 0.0005159955 -0.011849258 -0.042848263 0.046247527 -0.04648711 -0.029263109 0.026447037
0.026250223 -0.039852075 -0.04926042 0.0011595679 -0.045573283 0.0009278153 -0.07424279 -0.030641131
-0.066676304 0.022863738 0.056126144 -0.0476273 0.031550925 -0.03777465 0.052191727 0.024755482
-0.007851576 -0.008449209 0.042338703 -0.058604516 -0.0453405 -0.009997441 0.0076850494 0.06721974
0.05367614 -0.064123206 -0.05179015 0.021217976 0.061833326 -0.06511633 0.047796953 0.056692827
0.030244851 -0.06407257 -0.020608703 -0.046773445 0.0069884546 -0.019814538 -0.063163586 0.061637215
0.0074534104 -0.07598178 0.03412198 0.06586428 0.063231155 -0.018831952 -0.07092569 0.011701542
-0.027290361 -0.04636129 0.03649314 0.064951666 0.026021654 0.03338951 -0.016772462 -0.026492128
-0.058240116 -0.00833864 0.0628699 0.020064496 -0.04553032 -0.042745672 0.04817472 0.042710118
0.024009446 -0.051592458 -0.0704608 -0.022030927 -0.037408885 -0.035167333 -0.07453822 -0.060319126
-0.052078545 0.040199284 0.048193704 -0.029900758 -0.013181903 0.051616408 0.0067927907 0.06555348
-0.06570277 -0.027002973 0.013145097 -0.007139727 -0.04227217 0.06049843 -0.03148038 -0.040660378
-0.054776706 0.008628913 -0.07557276 -0.05302914 -0.024237663 0.029019557 -0.04740794 -0.018645488
0.028817125 0.06607219 -0.050123796 -0.018122673 -0.049178712 -0.033485256 -0.07045564 0.044551305
0.047958836 -0.045994047 0.05105685 -0.058115497 -0.0393995 -0.05213413 -0.020379262 0.038633812
-0.046245784 -0.048072614 -0.06837503 -0.03592713 -0.006973105 -0.032983612 -0.05006107 0.01827842
-0.005395054 -0.0068010925 -0.049075246 0.03658138 0.055250984 -0.07941441 -0.044683475 0.029277863
00000000: e593 9cbd 3cf8 3d3d 2830 46bd b6e8 a1bd
00000010: 045a 1c3d b94a a6bc 0b6d d33c d0db 823d
00000020: b1a8 83bd a8dd 5ebc 3ff8 24bd 3ccc 043d
00000030: f84b 72bc 911e 3dbd 5b6c 57bd 6647 1b3d
00000040: c515 38bd 1603 0c3d 525c 82bd c0a2 553d
00000050: 8b9c 26bd 58bb 9ebc 896e 9bbd bf4b 823d
00000060: c9a9 a8bc ad69 2abd a81e 0a3d 48c8 8f3c
00000070: df71 65bd ed55 23bd 1f92 94bd 7e94 2b3d
00000080: 545b 8abd 5d0d 683d 58d9 0dbd c70d c83c
00000090: bb0c f5bc 8f6c 3d3d 5aa6 b4bb 5dd0 8b3d
000000a0: ff6c 40bd c9ea 3dbd c45d 07bd b3b0 afbc
000000b0: e63d 683d 467f 003d 7b72 633d 8b3b 5a3d
000000c0: 1e77 153d 141d 7bbd ea88 a53c 8e0e eb3c
000000d0: c3ee b0bc 07e3 89bd df47 b2bc 9947 44bd
000000e0: 9ed8 3f3d c15a dcbc 35fb 90bd 9b3a 843d
000000f0: 38ee 27bb 8326 51bd 6bfe 48bd f30d 1fbc
00000100: ddfb 9fbd e9f7 e7bc b651 93bd c819 1b3d
00000110: 188a 3cbd cbcc 033d b52f 55bd 624c 8cbd
00000120: 01d5 2d3d 9a65 513d 7fd6 7fbd e78b ae3c
00000130: 3c59 0e3c ee07 e13c 6f81 063d 6980 4b3d
00000140: 698c 923d d847 8cbd 31fd 7dbd ff8e 92bc
00000150: e567 a3bd 9f6a fbbb 5ecb 6e3d d9b1 783d
00000160: 0ab9 93bd d473 0dbd 5ca0 67bd 3d78 b13c
00000170: 385e 86bd 7796 2e3c 60fc 3e3c 936d efbc
00000180: 849f 1d3d 4cd8 08bc 1b1d 723c 059c c4bc
00000190: 574b 5a3d e05f 93bb 483a 1abc 2bb1 f83c
000001a0: be44 2dbd 2cdb 663d 69f6 82bd 156e 49bd
000001b0: 7e76 13bd 976e 85bd b4ed 5bbd be0e a43c
000001c0: 85df ef3c 9daa 833c a07a 44bd 1ed3 263c
000001d0: 1c64 66bc 9011 4fbd 63b9 613d 1e24 6b3d
000001e0: 6ac1 843d df43 073a 6423 42bc a981 2fbd
000001f0: 0c6e 3d3d 4569 3ebd 30b9 efbc 75a7 d83c
00000200: b50a d73c ee3b 23bd 4bc5 49bd a4fc 973a
00000210: 0dab 3abd a138 733a 9b0c 98bd 1c03 fbbc
00000220: 968d 88bd bc4c bb3c 87e4 653d d814 43bd
00000230: 8b3b 013d 97b9 1abd fec6 553d 02cc ca3c
00000240: e6a3 00bc 8d6e 0abc 596b 2d3d 4a0b 70bd
00000250: f6b6 39bd 4fcc 23bc ded2 fb3b 81aa 893d
00000260: 83db 5b3d 0753 83bd e921 54bd 52d1 ad3c
00000270: f144 7d3d b65b 85bd bdc6 433d bd36 683d
00000280: 0dc4 f73c 7b38 83bd 95d3 a8bc 8395 3fbd
00000290: 68ff e43b 1952 a2bc e95b 81bd 4e77 7c3d
000002a0: bd3b f43b 569c 9bbd 7dc3 0b3d dae3 863d
000002b0: 567f 813d 7745 9abc 7d41 91bd d3b7 3f3c
000002c0: 0990 dfbc 56e5 3dbd d579 153d 6105 853d
000002d0: 5d2b d53c 70c3 083d 6766 89bc 0506 d9bc
000002e0: 308d 6ebd cb9e 08bc efc1 803d 4c5e a43c
000002f0: 007e 3abd 1616 2fbd db52 453d cef0 2e3d
00000300: 75af c43c 9d52 53bd c04d 90bd 347a b4bc
00000310: 0f3a 19bd 9f0b 10bd 7fa7 98bd 3011 77bd
00000320: 5050 55bd 01a8 243d c366 453d 6ff2 f4bc
00000330: e9f8 57bc ba6b 533d 0f96 de3b e740 863d
00000340: 2d8f 86bd 5735 ddbc 885e 573c 5ff4 e9bb
00000350: 9525 2dbd 34cd 773d 92f1 00bd 7f8b 26bd
00000360: 8a5d 60bd 4960 0d3c e4c5 9abd 1535 59bd
00000370: 108e c6bc 6cba ed3c d42e 42bd 6cbe 98bc
00000380: e411 ec3c db50 873d 9c4e 4dbd 0076 94bc
00000390: 9e6f 49bd d627 09bd 0c4b 90bd 6e7b 363d
000003a0: 7c70 443d 4164 3cbd fd20 513d 840a 6ebd
000003b0: 5f61 21bd 998a 55bd 69f2 a6bc 7d3e 1e3d
000003c0: 386c 3dbd cae7 44bd 3508 8cbd 5428 13bd
000003d0: a57e e4bb d319 07bd d60c 4dbd a0bc 953c
000003e0: fec8 b0bb b3db debb 2003 49bd 5bd6 153d
000003f0: db4e 623d 06a4 a2bd 0506 37bd 21d8 ef3c

bias f4 [2]
0.022629648 -0.045786902
00000000: d061 b93c 0c8b 3bbd
