Labs/2/problem2/neural-network-2-actor.pth (torch, 341278 bytes, 6 tensors)

weight f4 [400, 8]
00000000: 482e 6c3e f788 d03e 2aec 4a3e 3b73 33be
00000010: b4d7 80be 6968 82be 9f5a a63e 2ea8 2cbd
00000020: edef 973e 6936 07bd c9c8 c4be 9d39 c33c
00000030: 704e fb3d 1a1b 333e 29b7 ce3c 00e0 e63b
00000040: 2f6b 66be 5e4b 8e3d f229 a83e 3ada b3be
00000050: 46aa afbe 82d0 873e 94a4 b93e dd2a 8cbe
00000060: 2750 403e 3407 8ebe ae8f 94be 8922 0ebd
00000070: 5d01 97be 468b 673e 6440 bcbe fb41 5cbe
00000080: 120c 3e3e 7823 203e 2519 883e c853 a9be
00000090: 93a7 77be 3364 8e3e 71d1 b63c 1e42 1d3d
000000a0: 9acd 073e 4cf6 34be 5278 32bd 785a babe
000000b0: e2d4 db3e 356e b23d f468 0bbe 9fd1 0f3e
000000c0: c146 c33d bf4c aa3e 35ef b73e 7827 96be
000000d0: c579 433e e504 843d b503 873e 0494 bdbe
000000e0: 59cc eabd 4ae7 813d 482f d7be 7360 4dbe
000000f0: 46f9 163c e501 b73e 8481 fcbd 908f 72be
00000100: 65c0 cfbe a4d9 153e 81e8 d2be ba1d d63d
00000110: 8cc4 8cbe 9f15 82be 101c 61be 738d 78be
00000120: 50fc 9e3d 7c60 a33e bb3f 803e 380e 6abe
00000130: a6e9 debe d766 31be c121 a1be 03de 5c3e
00000140: dbb4 43be 9693 c8be d10f fc3d b115 933d
00000150: ec3d 7fbe 219c 073e 1ffe 8c3e 5175 33be
00000160: b5b5 d8bd 0a04 703e 9742 b5bd b273 7abe
00000170: 09cc c93e 6d13 f33e 9fcd 873d 8b7d de3d
00000180: 9be1 af3d 6f5a 463e 977e 583e 8dab 9dbd
00000190: f035 9bbe aea1 e8be cd70 cabe 65f6 933e
000001a0: 2686 8dbe 03c5 443e ca41 e5be 8500 a23e
000001b0: 2234 463e c1b5 b03e 2fee 823d 72a9 093e
000001c0: 6b45 2abd 9e57 d4bc 44e5 78be 6cc6 42be
000001d0: ba40 993e 9f85 9e3e 981a 96be 4cbf 0dbe
000001e0: 1160 533d 32fa a43e c0eb 903e 05f4 e63e
000001f0: b94b b9be 91d2 df3d a8db b7bc 717b 463d
00000200: ea0a 22be 1ce5 ba3d a78e 003f 2aaf 9a3e
00000210: aefb 18be 86e2 db3d 1925 d83d 520a 41be
00000220: 63b7 9b3e 4d52 94be 3761 a83e 7c15 2cbd
00000230: 20e4 963d 73f8 883d cc02 463e 5278 373e
00000240: 691b 943e 30da 8a3e 8ea0 5abe 7d94 d83e
00000250: 8678 95bd 5c9c 3ebd 1927 563e 7060 a5bd
00000260: 851f ad3e 6ced 923e cb89 653e eb95 1cbe
00000270: 6bd8 9dbe f83b 13be 0e3d ac3d e598 96be
00000280: a0d6 ae3e f520 9b3e d51a 533e e8fa a7be
00000290: 239f 483e 1314 d03e d446 16be cb63 80be
000002a0: 451c cc3d 6f6c bbbd f6d8 ec3e 33f7 3fbd
000002b0: ad99 b1bb 24fc 7e3e eac0 27be 9dcc 943e
000002c0: 1956 ba3e b97d 983e 7054 aa3e 4385 89be
000002d0: 9f78 4cbd 2e39 cebc 3945 90be 3978 333e
000002e0: bed5 b33d d14e 7bbe 5810 893e 402a 073d
000002f0: 3a43 803e 7f5b 0c3e 33ca 95be 14eb 45be
00000300: a7b5 bcbe d67b fa3d e5b2 b2be e40f 8a3e
00000310: 0d5c 00be a0a8 c73e 4f4c 023e f0a8 a13e
00000320: be00 c5bd 5bc8 303e a9da bc3e 0853 5c3e
00000330: e6ce 233e 72ba 0a3e 8318 6dbe 0508 71be
00000340: 4d0d 653e 075e 033e ad70 4fbe 2b5b eb3b
00000350: be40 76be 2eb8 933e e793 663e e96b e83d
00000360: de04 673e 7da1 8ebe c85a d03e 45df 8e3c
00000370: 3c26 a3be 21cf 08bd 76ba 673e b35c 25be
00000380: 843a 5c3d a0ad b1be dcee 3f3e 6557 8abe
00000390: c8cd b8be a788 3c3e de64 dcbc 1668 383e
000003a0: 673a bb3e 61cd 3e3e 4938 acbe 9536 a0be
000003b0: 3ee9 c33e 6d30 c13e caa7 a43e 598c 363d
000003c0: 9dbe d5be 17d9 1b3e 94b2 8cbe cd03 47be
000003d0: 9af3 e6bb 480a 9e3e e280 e7be 3037 9c3e
000003e0: 99a3 883e 7bc5 db3d 5fb6 203e 7c16 d5be
000003f0: b0dc 6abd 3af1 9e3d 8961 a63d 67d9 05bb
0.2306453 0.40729496 0.19816652 -0.17524426 -0.25164568 -0.25470284 0.32491013 -0.042152576
0.29675236 -0.033010874 -0.38434437 0.023831183 0.1227082 0.17490807 0.025233822 0.007045746
-0.22501825 0.06947969 0.32844502 -0.3512743 -0.34309596 0.26526266 0.36258376 -0.27376452
0.18780576 -0.2773987 -0.2901587 -0.034700904 -0.29493228 0.22611722 -0.36767876 -0.21509545
0.18559292 0.1563853 0.26581684 -0.33071733 -0.24185018 0.2781082 0.022316666 0.038393132
0.13262025 -0.1767208 -0.043571778 -0.36397147 0.42935854 0.087124266 -0.13614255 0.14044808
0.095349796 0.33261678 0.35924688 -0.29326987 0.1908942 0.06446246 0.26370016 -0.3702699
-0.114647575 0.06342943 -0.4202826 -0.20056324 0.009214705 0.35743633 -0.12329391 -0.23687577
-0.40576473 0.14633805 -0.4119301 0.10454889 -0.27493703 -0.2540712 -0.21983361 -0.24272709
0.077629685 0.3190955 0.25048622 -0.22856987 -0.43537635 -0.17324387 -0.31471065 0.21569066
-0.1911196 -0.391751 0.12307704 0.07181872 -0.24925965 0.13243152 0.2753763 -0.17525221
-0.10581533 0.23439041 -0.08850592 -0.24458197 0.3941348 0.47475758 0.06631016 0.10863789
0.08587953 0.19370435 0.2114204 -0.07698736 -0.3031459 -0.45435852 -0.39539185 0.28898922
-0.2764141 0.19215779 -0.44776756 0.3164102 0.19355825 0.34513667 0.06393086 0.13443545
-0.04157011 -0.025920685 -0.24306208 -0.19021004 0.29932195 0.3096132 -0.29317164 -0.13842505
0.051605288 0.32222134 0.28304863 0.45108047 -0.36190584 0.10928834 -0.022443607 0.048457567
-0.15824476 0.091257304 0.5021767 0.30211765 -0.14939758 0.10736565 0.10553951 -0.18851593
0.3041335 -0.2896904 0.3288667 -0.042012677 0.0736773 0.06688013 0.19337004 0.17916992
0.28927162 0.2711959 -0.21350309 0.42300788 -0.07298379 -0.046535835 0.20913352 -0.080750346
0.3381311 0.28696764 0.22415845 -0.15291564 -0.30829176 -0.14378345 0.08410083 -0.29413524
0.3414812 0.30298582 0.20615704 -0.32808614 0.19591956 0.40640315 -0.14675456 -0.25076136
0.099663295 -0.091515414 0.46259278 -0.046866607 -0.005419931 0.24900872 -0.16382185 0.29062358
0.36393812 0.2978342 0.33267546 -0.26859483 -0.04991972 -0.02517375 -0.28177813 0.1752633
0.087810025 -0.24541785 0.26770282 0.032999277 0.2505129 0.13706778 -0.29255828 -0.19327956
-0.3685734 0.12230651 -0.3490211 0.2696525 -0.12535115 0.38995838 0.12724422 0.31574202
-0.09619282 0.1726393 0.36885574 0.21516049 0.15996894 0.13547686 -0.23153882 -0.23538215
0.22368355 0.12828837 -0.20257826 0.007182499 -0.24048135 0.28851455 0.22517358 0.11348707
0.2256045 -0.2785758 0.4069426 0.017440448 -0.31865108 -0.03340066 0.22629723 -0.16148643
0.053766742 -0.34702778 0.18743461 -0.27019802 -0.360945 0.18411504 -0.026903566 0.18008456
0.36567995 0.18633033 -0.33636692 -0.31291643 0.38263887 0.37732258 0.32159263 0.04456744
-0.4174699 0.15219532 -0.27479994 -0.19435044 -0.0070480825 0.3086722 -0.45215517 0.30510855
0.26687315 0.10731026 0.15694569 -0.41618717 -0.05733937 0.07760854 0.08124072 -0.0020423771

bias f4 [400]
00000000: 08f6 2ebe ba5f 9b3d a67e 913d f03d 053d
00000010: 627f 073d 823c 26be 247d 933d 8fe1 f53c
00000020: 172e 10be 5b3d 85be 4913 4a3e 0321 eebd
00000030: ed31 bebd 93ec 383d b5c1 0c3e 5401 5e3e
00000040: 80b2 f6bc 4235 963e c19a c13d e3a3 f33d
00000050: 7360 213c ec39 cfbd 9667 913e dea6 46be
00000060: 0a51 c5bb 5a1b 653d 32f8 4b3e 042f 63be
00000070: 3c01 3abd 9ee3 c03d 992c d1bb 6cf6 2a3d
00000080: 4488 123e 3b9d 383d 5f63 6ebe 60e9 c13e
00000090: c922 ae3e 10e1 12be 0780 37be 0b47 103e
000000a0: 4e93 84be 3190 903e 3079 4fbd fca6 8d3e
000000b0: fea5 263e 57f1 f93d 5f99 65bd 776c ff3c
000000c0: 08b1 21be e8c7 91bc 7f5b 4b3e 40d6 0abd
000000d0: dfb8 c53e 39ac 0b3d 7ade fd3d 2dca 4b3e
000000e0: b4d6 24be b459 0b3d d059 8a3d b591 6bbd
000000f0: beea a43d ab97 4bbe 7dba 85be fcdb 643e
00000100: b875 033c d6e0 a03e 538d 24bd e37f c83e
00000110: ce22 053d ac44 85be ed13 5f3e 5ebf 023e
00000120: 8ae7 713d 5396 023e be5c 09be 0707 bb3d
00000130: 6a88 863d c980 f83d 59e8 87be f115 b23e
00000140: 03f0 703e 4e35 66bd 0d95 19be 31a8 0bbe
00000150: 953f 1b3d 62d5 af3e 757d ab3e a70a 27be
00000160: df5d b5bd fc50 853e d169 223e c7e0 cbbd
00000170: bc21 c63e a2d6 653e d8fa 4dbe 4633 873e
00000180: e642 8fbe 86e8 55be 9f29 9e3c 5e59 873d
00000190: 4d8a 1abe 9075 bcbd b906 7e3d 951c 7dbd
000001a0: 121f 3f3d 0f84 eebc 25f4 053e 0d1d 893e
000001b0: 7286 b03d ae68 463e 8917 993e dab9 55be
000001c0: c4e1 d43d 018a 39bd f86d f53d 9e23 b43d
000001d0: 8ec3 68bd b1c2 dd3d a00d 29be 458a 05bd
000001e0: f3b9 393d 0853 93be 1ab5 7fbc 8ec9 983d
000001f0: 1be3 b13e a27e c2bc b5c1 9cbd e06d 983d
00000200: 1e07 c73e b2ac af3d 4abc 973c 8ea4 a0bd
00000210: 5ab2 a33e 9751 23be 1f5e dd3c d1b0 58bb
00000220: ec92 a5bd de9e 333e 632c 7f3e 7471 663e
00000230: 0155 963e 6425 963e 8b96 6e3e 8005 3a3c
00000240: 0a44 413e 0e8a aa3c 1b63 51be 9d14 d4ba
00000250: 1abf 763d 4000 1cbe 0a1b ed3c d693 42bd
00000260: d288 6f3e bc85 563d 1679 063d 41c0 a13e
00000270: b3f3 aa3e 6485 34bd 20ed 543e 1c66 4b3d
00000280: 9ac4 ba3e 6e41 243e 8d22 3c3e 6060 ba3e
00000290: 0ba7 293e 285a 873e fa2e 263e 33ea b13e
000002a0: bf20 d33b 99d9 94be b58c 773d 86d4 0d3d
000002b0: 536b a73d 76ab 1a3e 99ef f93c 12ff e43c
000002c0: d20d 9abe be78 193e 84cb f5bd 589c 7b3e
000002d0: 78f3 87bd 6538 2ebe e1da a73e 6d20 09be
000002e0: faf7 673d cac7 ba3e 8919 043e 5f30 a43e
000002f0: 0908 bc3e 9288 893d 9ed8 363e 9205 c73e
00000300: a016 503d bf47 c53d e7cb ab3e 713e 20be
00000310: ae53 35be d319 263e cb1d b73e d6e2 463e
00000320: ec37 bb3e d4d7 f43d 80c3 d3bd 2a63 113e
00000330: 3aec 843e 006e 3c3e 748b 9bbe 128f 513d
00000340: e498 5f3e b329 57be 2dea 383a 6f99 c33c
00000350: a698 f13d e3e3 52be 5acf ecbd 47c3 7c3e
00000360: a865 34be 3752 913d 21b4 bb3d 6314 6a3e
00000370: 5c06 e63d c658 c03e 6471 6bbe c0b6 17be
00000380: b671 a93e fc6d 893d 46e1 63bd 899d 04bd
00000390: 2c20 b23d c6bf f3bd e3a8 433d 5041 273d
000003a0: e43d 76be 6aa7 a53e beef a33e 00d9 84be
000003b0: d972 e33c 0a4a 31bd c822 c0bd acac b53e
000003c0: c89c cebd 2f3c f73d ad62 8f3d 528d 863d
000003d0: ac99 27bd ae9e 6f3e 2e47 d53c 2590 973e
000003e0: 75f2 613e 5c2f b33e 85f3 21be 182c 36be
000003f0: bd52 7b3d 8a8d 4d3e 8b49 33be 895b 5d3e
-0.17086041 0.07586618 0.071042344 0.03252977 0.033080466 -0.1623402 0.07201603 0.030014781
-0.14080082 -0.26023373 0.19733919 -0.1162739 -0.09286866 0.04514749 0.13745768 0.21680194
-0.030114412 0.29337507 0.09453345 0.11896493 0.009849655 -0.101184696 0.28399342 -0.19399592
-0.0060216235 0.055934288 0.19918898 -0.22185904 -0.045411333 0.094184145 -0.0063834903 0.041738912
0.14309794 0.04507182 -0.23280095 0.37873363 0.34010914 -0.14343667 -0.17919932 0.140896
-0.25893635 0.2823501 -0.050652683 0.2766646 0.16274258 0.12204235 -0.05605447 0.03117965
-0.15790188 -0.017795518 0.19859122 -0.03389573 0.38617608 0.03409979 0.1239595 0.19901343
-0.16097528 0.034021094 0.067554116 -0.057512004 0.08052586 -0.19882075 -0.26118842 0.22349542
0.008023672 0.31421536 -0.04017384 0.3916007 0.032503895 -0.26028955 0.21784945 0.12768313
0.059058703 0.12752657 -0.13414285 0.091322 0.06568988 0.12133939 -0.26544455 0.34782365
0.23529057 -0.05620318 -0.14998265 -0.13638379 0.037902433 0.34342486 0.33494154 -0.16312657
-0.08855795 0.2603835 0.15860678 -0.09954982 0.38697612 0.22445157 -0.2011522 0.26406306
-0.27980727 -0.20889482 0.019306956 0.06608842 -0.1509182 -0.09202111 0.06201813 -0.061794836
0.04666049 -0.029115705 0.13081415 0.26779976 0.086193934 0.1937587 0.29900768 -0.20871678
0.10394624 -0.045297626 0.119838655 0.08795856 -0.05682712 0.1082815 -0.16509104 -0.032602567
0.04534335 -0.28774285 -0.015607143 0.074603185 0.3474358 -0.023742024 -0.07654134 0.07442832
0.38872617 0.08577861 0.0185224 -0.07843886 0.3197201 -0.15949093 0.02702242 -0.0033064375
-0.08084664 0.17541072 0.24919276 0.22504216 0.29361728 0.29325402 0.23299615 0.01135385
0.18873611 0.020817783 -0.20447962 -0.001618046 0.060240842 -0.1523447 0.028943557 -0.04750427
0.23392037 0.052373633 0.03283032 0.3159199 0.33389053 -0.044072524 0.20793581 0.049657926
0.3647812 0.16040584 0.18372555 0.36401653 0.16567628 0.2643597 0.16228858 0.34748992
0.0064431126 -0.29072264 0.060436923 0.034626506 0.08174767 0.1510447 0.030509757 0.027953658
-0.3008867 0.14987466 -0.12001708 0.24571359 -0.06638235 -0.170137 0.3278418 -0.13391276
0.056632973 0.36480552 0.12900366 0.32068154 0.3672488 0.06715502 0.1785607 0.38871437
0.050802827 0.09632825 0.33554003 -0.1564882 -0.17707703 0.16220789 0.35764918 0.19422469
0.36566103 0.119552284 -0.10340023 0.14197984 0.25961477 0.18401337 -0.30379832 0.051161833
0.21835667 -0.21012 0.0007053938 0.023876874 0.117966935 -0.20594744 -0.11562987 0.24683867
-0.17616904 0.07095759 0.09165216 0.2285934 0.11231682 0.3756773 -0.22992474 -0.14815807
0.33094567 0.06710431 -0.05563476 -0.0323768 0.086975425 -0.11901812 0.047768485 0.04083377
-0.24047047 0.3235429 0.32018846 -0.25946808 0.027764725 -0.0432835 -0.09381634 0.354833
-0.100884974 0.12072026 0.07001243 0.065699235 -0.040918037 0.23400375 0.026034918 0.2960216
0.22065146 0.3499707 -0.15815552 -0.17790258 0.061358202 0.20073524 -0.17508523 0.21616949

weight f4 [200, 400]
00000000: 8ebc 25be 3bdb 083e 3a24 f6bd 1129 2a3d
00000010: 0fdc c7bd 9a96 823c d89e 78bd 5896 043d
00000020: 7b2d 0ebe abf5 e2bd 2cfe 6abc 874f 083b
00000030: 9682 2cbe 0632 083e c957 983d c833 a7bc
00000040: 4d90 b13d d9c0 193d c75f 48bc b40f e8bc
00000050: ed73 3dbc 839a 663d 8fb7 13bd 4cf9 123d
00000060: 9c69 0e3e 484c 18bc 6e44 7e3d 45d4 8b3c
00000070: bc5d 843b 5f8a 943c 862c df3d 04c2 16bd
00000080: 92f9 f2bc d3de 8c3d 5248 de3a 8042 b63d
00000090: 3c77 e1bc 4774 42bd 4703 33bd e656 45bd
000000a0: 82a4 bebd a843 673c 8961 d1bc 4e1e 41bd
000000b0: 4b25 313d c605 823c 9a0e 023e ddd9 bf3d
000000c0: 5708 93bd 1226 393c c84c aa3d 1566 ce3c
000000d0: 6a42 c33d 33c5 ba3c 437d 56ba 4abf e73d
000000e0: 0380 bc3d 2b80 69bc cbbd 133d e7b2 0abe
000000f0: 39ca fb3c dbf1 0bbc 06ae 8f3d 05be 72bb
00000100: 7388 99bb da02 943d 2956 f63d e944 21bd
00000110: 26f4 683d 30ca d73d dde3 133c 748a a83d
00000120: 3990 853d 118c 973b 8ee5 26be c463 0d3d
00000130: 6b99 303e 7540 b03d a7ba 993d 98c7 c2bb
00000140: d115 bc3c 61ae cf3c 1eae 5abd c568 083d
00000150: 31c6 19bc fab4 563d 1386 8a3b a271 6a3c
00000160: fcd2 813d 1eba 29bb 274a dfbc 264c a53d
00000170: b3df a7bc 74da 54bc 676e dfbc bb24 98bb
00000180: e90d 153d 8098 c5bd d39e 123d cbfd 9bbd
00000190: 810f 3dbd 698e 85bd 0f6a 09bd db2d 493d
000001a0: d4b3 a3bc 0f1d 73bc ee02 c03d 0919 0bbc
000001b0: 236b 95bd c56f 493d e6bf 87ba 157c 6e3d
000001c0: 2dd9 9abc d205 04be 3b5b 533d 08ed c43d
000001d0: b7cf ae3c c60f 2fbd a8d9 5a3c 75ca c5bc
000001e0: 0d94 dcbd 5799 073c 36c4 033d 7879 4fbc
000001f0: a246 1c3d 1555 92bc 4a6a 173c e1da d0ba
00000200: e7f8 b93c c01e 433d 49f4 1dbe 33bc 413c
00000210: c831 443d 1959 ecbc ffe7 7bb9 608d 12be
00000220: 4f4a 4f3d 1331 95bd c88a 673d 075d 3b3c
00000230: 0fa3 80bd e1bd 1cbc e8e0 a33d 12ac d4bd
00000240: fa1e 223d dc7b 53bc 784a f4bc 4702 18be
00000250: a079 483e 2607 df3d af7b 6cbc 0b68 0b3d
00000260: 9a32 953d bc16 3a3e 819d 8e3c 3b1c 3f3d
00000270: fd55 003d 0264 0f3d 5e95 b43c 96c5 6b3d
00000280: 446e e9bc 5ad9 45bb 6271 c33d 8607 8e3d
00000290: cf72 b9bd 0314 97bc 56b3 9dbb f6ba 1f3d
000002a0: 31f1 ae3d c972 11bd 4efe 3dbd ba2f 3a3c
000002b0: 9bbb c43d 5abe 6a3d 5eaf f4bc 101f 06bd
000002c0: 161a 9fbd 3e05 373d a6b0 243d df3a 173c
000002d0: e6d0 8f3b fb3b 0ebc c5d2 7f3d 3369 cbbd
000002e0: c04e f23d db3d 60bd 9329 b73c 212c 62bc
000002f0: beb5 a23c 2209 033e 55d8 5ebc 4314 e9bc
00000300: 1613 02be d631 c83c ff07 1c3c af95 873d
00000310: f7e0 b93b 85bf 9cbc 07f0 8c3d 7fa4 1abd
00000320: 37cb 92bc 7f79 83bb 0b6a f4bd d527 8c3d
00000330: 2a89 d7bc 7b72 223d 126e 08bc 41c9 353c
00000340: 0cbd 1bbd 2008 fbbd d87d e03a 8e8a b1bd
00000350: a746 943d c24f a7bd 1643 22bb ceb6 5e3d
00000360: 1cdd 073d 0312 983d ae32 ef3d 66cc 2a3d
00000370: 86b3 8e3d 44f0 29bd 9633 b6bc 2dc8 61bc
00000380: 9e71 05bd 5f40 013d bab0 5d3d ceb1 3e3d
00000390: fd84 41bd 738f 5bbd cdbb 8cbd 3bda c23a
000003a0: 120d 01bd 1a09 963d d3b3 0c3d d9e6 253d
000003b0: 876f eb3d 3a23 173d c961 19bd 6e5f 8c3d
000003c0: 8897 7bbd 3237 6abd d70c f43d a986 09be
000003d0: ac3f f6bd 9bd9 35bd dd5d 813c d5f9 3f3b
000003e0: 2a81 bebb a842 13bd 983f 41bd a8ca 673c
000003f0: 5202 053e ce63 55bd 54d2 9f3d 84e9 823c
-0.16185209 0.1336488 -0.120186284 0.04154307 -0.0975877 0.015940953 -0.06069836 0.03236994
-0.13884537 -0.11082014 -0.014342826 0.0020799355 -0.1684669 0.13300332 0.07438619 -0.020410433
0.08670101 0.03753743 -0.012229866 -0.0283278 -0.011563283 0.056299698 -0.036063727 0.03588228
0.13907474 -0.009295531 0.06207698 0.017068991 0.0040394943 0.018132387 0.10897164 -0.03680612
-0.02966002 0.06878438 0.0016958809 0.088994026 -0.027522676 -0.047474172 -0.043704297 -0.048178576
-0.09308721 0.014115252 -0.025559204 -0.04714804 0.043248456 0.015871894 0.12700883 0.09367726
-0.07179325 0.011300581 0.08315426 0.02519516 0.09534152 0.02279911 -0.00081821176 0.11315782
0.09204104 -0.014251749 0.036069673 -0.13544808 0.030736076 -0.00854155 0.07015614 -0.003703953
-0.0046854555 0.072271064 0.120281525 -0.03937236 0.056873463 0.10536611 0.009026495 0.08229533
0.06521649 0.0046248515 -0.16298506 0.034518972 0.17246024 0.08606044 0.07506304 -0.0059442036
0.022959622 0.025351705 -0.053388707 0.03330304 -0.009385631 0.052418686 0.0042274087 0.014309319
0.0633907 -0.0025898288 -0.027257038 0.08071165 -0.02049241 -0.012991536 -0.027274324 -0.0046430505
0.03639022 -0.09648228 0.035795998 -0.076167665 -0.046157364 -0.06521303 -0.03354841 0.049115997
-0.01998321 -0.014838471 0.09375559 -0.008489856 -0.07295825 0.049178857 -0.0010356873 0.058223803
-0.018902386 -0.12892845 0.051600676 0.096155226 0.02133928 -0.042739652 0.013357557 -0.02414439
-0.10770426 0.008276305 0.032169543 -0.012663238 0.0381533 -0.017862836 0.00924165 -0.0015934372
0.022701694 0.047636747 -0.15425219 0.011824655 0.047899038 -0.028851079 -0.0002402365 -0.14311743
0.050607976 -0.07284751 0.056528836 0.011435754 -0.06281101 -0.009566755 0.08001882 -0.10384382
0.039580323 -0.012907948 -0.029820666 -0.14844619 0.19577646 0.10890035 -0.014433785 0.03403477
0.07285042 0.18172735 0.017409088 0.046657782 0.031332005 0.035007484 0.02204388 0.05756148
-0.028494962 -0.0030189366 0.095431104 0.06935029 -0.09055101 -0.01844216 -0.0048126383 0.03899666
0.08542097 -0.03550986 -0.046385102 0.011363918 0.096060954 0.05731044 -0.029868778 -0.032744467
-0.077686474 0.044682734 0.040207528 0.009230345 0.0043889163 -0.008681293 0.062456865 -0.099321745
0.118314266 -0.05474649 0.022358691 -0.013804466 0.019862052 0.12796453 -0.013601382 -0.028452044
-0.12702593 0.024437826 0.009523391 0.06620347 0.00567257 -0.019134292 0.06881719 -0.037754532
-0.017919166 -0.004012286 -0.119342886 0.06843535 -0.026310522 0.03965996 -0.008327024 0.011095346
-0.038022086 -0.12257409 0.0017127348 -0.08669005 0.07240038 -0.081695095 -0.0024759225 0.054373555
0.03316985 0.074253105 0.11679588 0.041698836 0.06967835 -0.0414889 -0.022241395 -0.013780636
-0.032579057 0.03155553 0.054123618 0.046556287 -0.047245968 -0.0536036 -0.06871758 0.0014866063
-0.031506605 0.07325955 0.03435118 0.040503357 0.114958815 0.03689883 -0.03744677 0.06854139
-0.06142381 -0.057181545 0.119165115 -0.13430275 -0.12023863 -0.044396978 0.015791828 0.0029293199
-0.0058137374 -0.03595224 -0.04717979 0.014147438 0.12989166 -0.052097134 0.07803789 0.01598049

bias f4 [200]
00000000: e85a 36bc 151f 213d 4f0e 4c3d 0e7c 873d
00000010: 3f88 2a3d c8cc 75bc 3dbd 653a 2642 03bc
00000020: 8d29 cdba 4fad 3b3d 0071 e4bb 375d 283c
00000030: ad6d 2e3d 41a2 fa3c 202a d23c ccea 243d
00000040: d950 8cbc 31a5 203c a0b0 15bd 1c6d 773d
00000050: 8a31 203d f062 263d 9ad1 4ebc 0b04 4d3d
00000060: ee08 2cbd 48c6 63bb e5b7 d1bc f3de 2dbb
00000070: d26f 943c f855 933b aa0f 86bc 0e17 96bb
00000080: ed82 85bb ea1a 25bc aa87 89bc 7d10 123d
00000090: d0ed 05bc 5f86 4abc 0e40 2c3d 8026 0cbd
000000a0: 464d 623d 812e b13c baf1 083d d597 cdbc
000000b0: ab8f 873d b8fe ecbc 8fc3 26bc df52 b93c
000000c0: bfb6 8d3c fdf8 3c3d 8151 16bd 18a6 8cbc
000000d0: 5309 2a3d 1e3d e0bc 978a a93c a0e5 03bd
000000e0: 1280 693d 692a 4d3d 910a 45bc 5f78 ce3c
000000f0: 44c7 013d 767d 8d3c 0d65 833d 9ea1 ee3c
00000100: 80b8 d23c d166 ec3c 21c2 093d fa04 443b
00000110: 8a1e f63c edfc 73bc 11fd 73bc b423 963d
00000120: 291f 7e3d f912 d2bc 092d 683d b665 9d3b
00000130: 5e90 03bd 0494 bc3c 5618 18bc 6277 3abc
00000140: 608e 98bc ca12 55bc f004 733d 5aae 213d
00000150: e035 393d 607d 773d c1ca dfbc 3ea7 193d
00000160: 1c0d 7dbc 4e8f c63c 702a 4bbd 4582 91bb
00000170: 92c0 3ebd ec8a c4bc e60d 89bc 254b 9ebc
00000180: 135f 90bc 4ce8 f7bc 712d 433d 8fd1 233d
00000190: 10dd febb 5492 6fbc 3f8d 2c3d 04cc 573c
000001a0: 7b34 0b3d 7bd1 963b 75c6 e63c 3368 13bd
000001b0: 2bf5 acbc 79b8 e2bb 34c3 6e3d fdb2 e9bc
000001c0: 5c7d 1e3c a0ee 49bb 07d7 153d 94b8 20bc
000001d0: a43e e03b 4ccb 50bc 660c 0cbd 2412 2bbc
000001e0: 0b0d 01bd 81f5 cd3c 13a3 07bc a9b1 47bc
000001f0: 0c65 283d 9427 37bb 370b 09bd 95ac bebc
00000200: e0bc 863d c323 183d 5f26 ccbc da9a fcbc
00000210: 49b8 34bc d4ef 03bd a47d 263d ba1c c73c
00000220: c866 cd3c 7d9b 023d 2348 2d3d 0c28 6fba
00000230: d0fd 0ebd 7ccc 13bd e232 023d 381b f6bc
00000240: 5eae 053d 9c64 0b3d c8df 39bc bd12 513c
00000250: 19fe efbc f311 c73c 7324 5fbb 6153 013d
00000260: f479 113d 9745 793d 326a 933d 23d3 983d
00000270: 4459 db3c cb7d e33a 7a92 a13b 7abf 2c3d
00000280: 62d1 bc3c 995c 0f3d e3b4 6ebb 4e39 3a3d
00000290: c3b7 533d 54ea a5bc b97d 643d 29bc b5bc
000002a0: 3df2 193d e554 363d fc96 f1bc 2f76 06bd
000002b0: 93c4 f7bb 3a98 f6bc e9ee 5fbc 6b2c ff3c
000002c0: 6a23 9cbc ef3b 31bd 1edb ea3c 8178 5c3d
000002d0: b7e8 45ba fc8f fb3c 20bd 913d cecc 913b
000002e0: 2b51 85bc bb25 babc d7a3 93bc 2c9a 303d
000002f0: 6bbd fc3c d594 673d 7d08 b13c 3162 2a3d
00000300: bd8e a43c 7bd5 033d 1118 df3a 5f52 1a3c
00000310: 0d44 9f3b 88a0 4e3a 1d80 22bc c47c 1cbd
-0.011130072 0.039336283 0.049818333 0.066154584 0.04163384 -0.015002437 0.00087638554 -0.0080113765
-0.0015652642 0.045819577 -0.0069714785 0.01027613 0.042585064 0.030594947 0.025654852 0.040262982
-0.017128395 0.00980501 -0.036545396 0.06040679 0.039109744 0.040621698 -0.012623215 0.050052684
-0.042000704 -0.0034755636 -0.025600383 -0.0026530593 0.018119726 0.0044963323 -0.016364891 -0.004580385
-0.0040744455 -0.010077218 -0.016788322 0.035660256 -0.008174375 -0.012361138 0.042053275 -0.034216404
0.055249475 0.02162862 0.033433653 -0.025096813 0.06619199 -0.028930053 -0.010178461 0.022622524
0.017299054 0.04613589 -0.036698822 -0.017169043 0.0415128 -0.027372893 0.020695968 -0.03220141
0.057006903 0.050089274 -0.012026445 0.025203882 0.031684175 0.017271738 0.06415758 0.0291298
0.025722742 0.02885762 0.0336324 0.0029910193 0.030043859 -0.014891845 -0.014891879 0.073310286
0.062041435 -0.025643812 0.056683574 0.0048033847 -0.0321201 0.023019798 -0.009283146 -0.011381002
-0.018622577 -0.013004968 0.05933088 0.039472915 0.045217395 0.0604223 -0.02731836 0.03751301
-0.01544502 0.024238255 -0.04960102 -0.004440578 -0.046570368 -0.023992024 -0.01673026 -0.019322941
-0.01762346 -0.030262135 0.04765076 0.039994773 -0.0077778175 -0.01462229 0.04212689 0.0131712
0.033985596 0.0046026087 0.028170804 -0.035988044 -0.021112999 -0.0069189635 0.05829163 -0.028527731
0.009673443 -0.0030812398 0.03658202 -0.009809632 0.006843405 -0.012743782 -0.03419151 -0.010441337
-0.03150658 0.02514148 -0.008278626 -0.012188354 0.04111199 -0.0027947174 -0.03345796 -0.023275653
0.06578994 0.03714348 -0.02492064 -0.030835558 -0.011030265 -0.03221114 0.040647164 0.02430569
0.025073424 0.031886566 0.042305123 -0.0009123094 -0.034910023 -0.036083683 0.031786807 -0.030042276
0.032636993 0.034031495 -0.0113448575 0.012760815 -0.029295968 0.024300551 -0.0034048825 0.031573657
0.035516694 0.06085738 0.071979895 0.07462146 0.026775964 0.0017356215 0.0049307914 0.042174794
0.02304906 0.035000417 -0.0036423735 0.045464806 0.05168892 -0.020253338 0.05578396 -0.022184448
0.037584532 0.044514555 -0.02949094 -0.032827552 -0.0075612753 -0.030101884 -0.0136678 0.03114911
-0.019059855 -0.043270048 0.028668936 0.05382586 -0.0007549631 0.030708306 0.07116151 0.0044494634
-0.016274055 -0.02272307 -0.01802246 0.04311578 0.03085204 0.05653842 0.021610493 0.04159755
0.020087594 0.032186013 0.0017020722 0.009419053 0.004860407 0.00078821974 -0.00991824 -0.038204923

weight f4 [2, 200]
00000000: 26a8 04be d23c 76be e007 c3bc 9c29 1cbe
00000010: 8a78 313e a406 803c e290 493e d260 693e
00000020: 9c40 26be bf64 68be b92c 43be 4029 2bbe
00000030: 6ff6 5bbe c075 f9be 52d8 533e fa76 ebbd
00000040: 70ef 863d e4ab 1c3e 16f7 383e 71b2 83be
00000050: 34f3 003e 658c 213e 8186 493e 09fe edbc
00000060: effd 773c 06f2 0ebe 68c0 18be 2c98 393e
00000070: 8487 8ebe b901 3cbe 3309 2ebe e5d4 0dbe
00000080: ff59 1ebd cd4f 0fbd 18f8 db3d ea6e 553e
00000090: a0bc 033e f3b7 833d 34b1 4cbe 7877 773d
000000a0: db79 603d 3c62 e23d c727 a63c b397 753d
000000b0: 728c 0abe b433 4dbd 6910 053d 54a6 82bc
000000c0: be84 1d3e fd3c 3abe d793 65be 9e6b 12be
000000d0: e574 c4bd 3129 523d d4f0 fa3d 71a4 a63c
000000e0: 8c91 d8be daaf 213e fcc8 183e 8ea6 2d3e
000000f0: 74c1 973d 0434 98be 59a1 993c ef99 ba3a
00000100: 8802 a3be f430 4b3e 688f 41bd bf38 97bd
00000110: cbec d7bd dee9 4abe 7480 b3be fd19 b53d
00000120: 16bd 143b 1fd6 57be e915 91be 3cb4 98be
00000130: 455e 353e e65c f83c 27ee 86be 7744 7f3c
00000140: fada 733d 4e69 e1bd c4a0 ec3d 8244 1fbe
00000150: 5146 24be 1be3 d4bd 9315 223e fccc 36bd
00000160: 53c1 c7be b826 613d b852 df3a 0eb9 7fbc
00000170: 8ac6 92be ee71 f5bd b813 b5be 8ef9 b4be
00000180: 814f e3be 3892 f5bd 86a9 08be 3fb1 26be
00000190: b4ff 543e 81c1 5f3e fc55 5bbe 8885 393e
000001a0: 093f 673c d1c3 35be 344d fa3d 6dcd 433e
000001b0: 2b43 803d d833 333e e56a 0dbd e3a7 27be
000001c0: d31c 683e c22b babc b319 de3d ca68 323c
000001d0: 77b6 8cbe fd4d 76be 98b1 6abe 0ed5 8cbe
000001e0: c730 88be 4e06 1bbe b0fb 3b3e 5cde 583e
000001f0: dffa 703c 197d 283e 7fbb 43bc efcb abbe
00000200: 2165 1e3e 906d 153e 331d 94bd f02b 56ba
00000210: b796 803d ac38 0e3d 6919 643d 059b d03d
00000220: ea99 51be cdd1 bbbd 2844 4d3e 199a bd3c
00000230: 02d6 2c3e c257 4f3e cbdc 7f3d 6941 5b3d
00000240: 3260 503e b566 fe3d 5e3b 27bd 6204 b9be
00000250: 5548 16be b22d 5dbc 5751 22be 7055 25be
00000260: d97f 3a3e 5927 3cbe 6af0 e63d 2002 ef3d
00000270: c9da 00be eab3 a6be 7298 75be dd60 503c
00000280: df90 c3be 5f6d 06bd 1b96 853d 0fdd e8bd
00000290: 5e88 663e bcf2 b2be 9ea1 553e 98d9 303e
000002a0: 1d6f 0dbe 2b43 13be a884 cdbd 1834 bdbb
000002b0: a886 24be c808 e8bc 6c62 01bd 6c65 21be
000002c0: f978 de3d 19f2 703d a189 34be 9927 abbe
000002d0: e858 5a3e 0f50 63bd b222 d83d 969d 033e
000002e0: cbbc 2a3d fee8 2ebe e702 39be 3e77 dd3d
000002f0: 3ac8 27be 8d51 143e e928 523e b82c 1cbe
00000300: ce0e fc3d 239e 423e a412 273d ccd8 723d
00000310: 3077 fc3d 585e 0f3e 2ce1 493d 8587 66be
00000320: 3678 373e e6ee 10bd 06ce 37be 3ed1 d3bd
00000330: adca b93d b579 18bd cca8 91bd d138 cdbc
00000340: 6769 36be c28a 243d 37db 243e eb32 76bd
00000350: 2525 1abe 4410 1a3d f664 b4bc 83d4 a4be
00000360: 3180 f8bc 277c be3d 5bfc 96bd ee9f 4dbd
00000370: 427e 063d 761a 85bd 12fe a1bd 2fcb 343e
00000380: bef7 4d3e acc7 113e 49da 08be 8230 b0bc
00000390: 2593 acbd a5b0 2d3e 8a37 50be 9f31 ebbd
000003a0: 6a53 733e 6b02 223d 927f 08be 1e43 7fbc
000003b0: a544 da3d d0cb a23b db7a 24ba 1242 e43b
000003c0: 987c 26be 60ef 8ebd d74f 6cbc 430c 56bd
000003d0: 238c 77be febe 4e3d f0c7 f6bd 55ea 31bd
000003e0: 86d1 d8bc 8038 3a3e b3f9 c23d 4594 0f3e
000003f0: 4581 12be 75ca e93b f25c a23d 1a5a 463e
-0.12954769 -0.24046639 -0.023807466 -0.15250248 0.17331138 0.015628166 0.19684175 0.2279084
-0.16235584 -0.22694682 -0.19060029 -0.16714954 -0.21480726 -0.4872265 0.20687988 -0.11497302
0.06588638 0.15299946 0.18063006 -0.25722077 0.12592775 0.15776213 0.19680215 -0.029051797
0.015136226 -0.13959512 -0.14917147 0.18124455 -0.27837765 -0.18360032 -0.16995697 -0.13850744
-0.038660046 -0.034988213 0.107406795 0.20843092 0.12864923 0.0643157 -0.19989473 0.06041667
0.05480371 0.11053893 0.02028264 0.059959125 -0.13530138 -0.050098136 0.032486353 -0.015948452
0.15382668 -0.18187328 -0.22419678 -0.14298865 -0.09592608 0.051308814 0.122529656 0.020342084
-0.42298543 0.15789738 0.1492042 0.16958067 0.07409945 -0.29727185 0.018753694 0.001423655
-0.3183787 0.19842893 -0.047255903 -0.0738387 -0.105432115 -0.19815776 -0.3505894 0.088428475
0.0022695712 -0.21077774 -0.2833703 -0.29825008 0.17711742 0.030317735 -0.2635357 0.015580288
0.059535004 -0.110064134 0.11554101 -0.15553477 -0.16042449 -0.103948794 0.15828542 -0.044629082
-0.39014682 0.054968566 0.0017038202 -0.015608085 -0.28667098 -0.11984621 -0.35366607 -0.35346645
-0.44396594 -0.1199078 -0.13345918 -0.16278552 0.20800668 0.2185116 -0.21419519 0.18117344
0.01411415 -0.1775048 0.122217566 0.19121332 0.06262811 0.17500246 -0.03452577 -0.16372637
0.22667246 -0.022725943 0.108447455 0.0108892415 -0.2748296 -0.24053188 -0.22919309 -0.27506298
-0.26599714 -0.15139124 0.1835773 0.21178573 0.01470825 0.16453971 -0.011946558 -0.33554026
0.15468265 0.14592576 -0.07232132 -0.00081699993 0.062787466 0.034722015 0.055688296 0.10185818
-0.2046887 -0.09170876 0.20045531 0.023144769 0.16878513 0.2024832 0.062466424 0.053529177
0.20349196 0.124219336 -0.0408281 -0.36136156 -0.1467603 -0.013499664 -0.15851341 -0.16145873
0.18212833 -0.18374385 0.11276324 0.11670327 -0.1258346 -0.3255914 -0.23983935 0.0127184065
-0.38196465 -0.03281915 0.06522771 -0.113702886 0.22512957 -0.34950817 0.20862433 0.17270505
-0.13811918 -0.14381091 -0.10035068 -0.0057740323 -0.16066992 -0.0283245 -0.031588003 -0.15761346
0.108629175 0.058824632 -0.17630626 -0.33428648 0.21322978 -0.05549627 0.105534926 0.12853083
0.041683953 -0.17081067 -0.18067513 0.10813759 -0.16384974 0.14484234 0.20523418 -0.15251434
0.12307511 0.19005637 0.04078926 0.059288785 0.12327421 0.14000833 0.049287006 -0.22512634
0.1791695 -0.03538408 -0.17949685 -0.10342644 0.090718605 -0.037225444 -0.071122736 -0.025051506
-0.17813645 0.040171392 0.16099249 -0.060107153 -0.15053232 0.03761317 -0.022020798 -0.32193384
-0.030334564 0.09301024 -0.07372352 -0.05020135 0.032835253 -0.06499188 -0.07909788 0.17655633
0.20114037 0.14236325 -0.13364519 -0.021507505 -0.08426503 0.16961916 -0.20333686 -0.11484074
0.23762289 0.039553087 -0.13329914 -0.015579967 0.10657624 0.004968144 -0.00062744104 0.006965884
-0.16258466 -0.06979251 -0.014423332 -0.052257787 -0.24174552 0.050475113 -0.12049854 -0.043436367
-0.026467096 0.18185616 0.095202826 0.14021404 -0.14307125 0.0071347305 0.07927884 0.19370309

bias f4 [2]
00000000: 4c8b 0cbb 2fa9 74bc
-0.0021445332 -0.014932915
