Labs/2/problem2/neural-network-2-critic.pth (torch, 343464 bytes, 5 tensors)

weight f4 [400, 10]
00000000: 4f97 223f 332c 70be 4b88 cabd 2524 e4be
00000010: 41d8 ca3e f3b4 b53e 1e6a 31be 61a3 17bd
00000020: b15d 6f38 69bd 1fbc e3ab d0bd 5a39 1a3e
00000030: 4119 11be 62e0 543d f3e9 06bd 483a 7f3e
00000040: 08b1 b23e bfa3 0dbd 0aa9 ef3c ee56 a9bd
00000050: 8224 dd3e 0852 2fbf 7ef9 803e cc3b 623e
00000060: 39a8 efbe 4a05 edbe ebfd 063e c3ce 16bd
00000070: 2456 b63d fc63 09bd 144d 073e e3e7 a1be
00000080: fc65 e8bc 0a60 433e 80ca f73e 2692 bc3d
00000090: 8c00 ebbd 469e fbbc 14f5 e8bc 7ad8 233e
000000a0: 4457 c2be 5128 11bf 7b9e 033e d0f4 013f
000000b0: 8c1e a2be 475e 03bf 6337 9c3e bf2e cbbe
000000c0: 5cfb 203e 8eda 7e3c c263 97be ea9a a03e
000000d0: 8d3e 04be d1c9 c23e 5cc7 103e 3457 70bd
000000e0: c38f 4f3e be82 c8be 6ba9 083d 1d56 823d
000000f0: e1cd c13e 374f ddbd d6ff 643e 2c6e 083c
00000100: 2e4f ed3e d0e4 4e3f cdcb a8be b685 0bbe
00000110: da4d 9dbd 585a debc c0c9 483e 342c 993d
00000120: c390 ae3e 4d33 323f 2f4a 9dbd 9d99 d0be
00000130: 5de1 173e ec51 82be acc1 e03c 42f4 213d
00000140: eaeb 81be d9bb 913e ed01 d5be 7372 013f
00000150: 014a f2be e42a 64bd 541d 00bf 2c6f 6a3e
00000160: 2a32 9dbc 6513 1ebd 24ee 463e 1180 a0bd
00000170: f01a f03e 08a2 2f3f 1fa6 52be 2156 903d
00000180: 3baf 3fbc 7dda 0bbf e8cd 093d 71c1 12bd
00000190: 9d3a d93e 0094 ecbc 5027 e5be 37a1 7ebf
000001a0: 968b b43f 6342 343e c155 f6ba 19c5 373e
000001b0: f470 4ebc a1d2 743c 19bc 2dbe 5e6b a6bd
000001c0: 8091 d8be d0cd 15bf f870 18bf 3bbf b33e
000001d0: 1a4a cd3d ac26 123e 84c0 363e 3544 6ebd
000001e0: 0b1e 79bd 9e06 ca3d 0fd5 0e3e 5255 8a3e
000001f0: 34b8 b33e 1c46 ee3c 3f6c e1bd 9977 bebd
00000200: 62a9 f8bb 375a a33b ebfa 82bc 0fc5 603e
00000210: 3e52 863e f1a0 363c 3a0e 9dbc 1934 083e
00000220: 6c29 92be 060c e3be 2cff 89bd 93e2 0abe
00000230: ba0b d83d ba64 7a3c b9e7 25bf ee95 0a40
00000240: 4f33 0fbf 5b19 b5bb 9a30 db3d 5fd9 d23c
00000250: 5932 f4bc 250a 793c 6de5 a2be 6d0e 243e
00000260: 4ee1 023e 89ed 743e 0f28 013f 5a4d e43e
00000270: 908c 8abe 57fc 91be 6a51 2bbd cb5b cdbd
00000280: d98c c83b 2ad4 e33d fb32 03bf 35dc 313f
00000290: e0a6 c3bd 34a5 7e3e 72fe d5be 58ec 723e
000002a0: 5f15 e7bc f450 5a3a aa75 f2bd f4ba 05bd
000002b0: fa6e 363f 5230 44bf da03 42bf a559 81bd
000002c0: 71d0 c73d 91fa 0a3f deb3 40bd 8ea7 25bc
000002d0: e90e 7dbd 38fa 84bd c54c d5bc f63f 6c3e
000002e0: 8549 e03c 7cc6 1abe a9df 9ebe bd26 f1bd
000002f0: 3eda 8bbd 4058 913d 6469 043e a4f7 ccbe
00000300: ed4e d83e 0d3f 933d 5a0d 29be 7628 c13d
00000310: 718d 243c 1995 1cbe bdcc 69bd 265c 2a3e
00000320: 80a7 e63e 323b 1dbf 9e8c 723c b93d 0abc
00000330: d57d c5be 05b5 0abf 6cf0 85bc 0939 673d
00000340: fc1e 0f3e 5b40 0bbd b2bc 6ebd b735 15be
00000350: a350 923e 9b4a d13d 3ba7 babe d88b 9fbe
00000360: 8316 b03d 2761 0f3e 36a7 043e 6e28 ebbd
00000370: b13e 1d3e 4bd3 b9be e2e5 eb3e 5828 8ebe
00000380: b9ac 16bf b4b9 a0be 10ff 3ebe 8fc9 9e3d
00000390: 3894 ce3c 0f73 3e3c ec37 3b3e b798 14bd
000003a0: d016 1e3e 760f 90bc 829f 79be 634a d93e
000003b0: 97b1 a8bd fdb8 3dbf 867a 88bd 94ff 4e3c
000003c0: 1b62 ab3d 2ab2 cb3e 8286 1b3f 6fcb 81be
000003d0: db0b 523f 1e59 263e d6e2 7abf cf1c aa3e
000003e0: f31c b8ba 4f6c fa3c 5753 c8bd 2d5d f6be
000003f0: 86a6 4fbf ae87 f73c cae3 023e 7b6d 8cbc
0.6351213 -0.2345436 -0.09889277 -0.44558826 0.39618114 0.35489616 -0.17325637 -0.037021045
5.7069297e-05 -0.009749749 -0.10189035 0.1506094 -0.1416979 0.0519718 -0.032937955 0.24924576
0.3490069 -0.03457999 0.029255409 -0.08268534 0.43191916 -0.68484545 0.25190347 0.22093123
-0.4680803 -0.46293098 0.131828 -0.036818277 0.08903149 -0.03354262 0.13212997 -0.31622228
-0.028368942 0.19079605 0.48396683 0.09207563 -0.11474714 -0.03071512 -0.028437175 0.16000548
-0.37957203 -0.5670214 0.12853424 0.5076418 -0.3166393 -0.5131573 0.30511007 -0.39684102
0.15720886 0.015555037 -0.29568297 0.3136819 -0.12914486 0.380446 0.1413855 -0.058676913
0.20269684 -0.39162248 0.033364695 0.06364081 0.37852386 -0.10806125 0.22363219 0.008327048
0.46349472 0.8081789 -0.32967988 -0.13625225 -0.07680865 -0.027142689 0.19608212 0.07479134
0.3409482 0.6960953 -0.07680165 -0.40742198 0.14832063 -0.25453126 0.0274361 0.039539583
-0.253753 0.2846363 -0.41603032 0.5056526 -0.47322085 -0.055704966 -0.5004475 0.22893971
-0.01918896 -0.038592715 0.19426781 -0.07836927 0.46895552 0.68606615 -0.20571183 0.07047678
-0.011699493 -0.5463026 0.033643633 -0.03582901 0.4242753 -0.028879166 -0.44756556 -0.99464744
1.4105098 0.1760345 -0.0018793867 0.1794628 -0.012600172 0.014942796 -0.16966285 -0.081259474
-0.42298508 -0.5851717 -0.59547377 0.35106835 0.100238994 0.14272565 0.17846876 -0.058170516
-0.060819667 0.098645434 0.13948463 0.2701822 0.35101473 0.029086165 -0.110069744 -0.09300155
-0.0075885514 0.0049851197 -0.015988788 0.21950172 0.2623462 0.01114677 -0.019171823 0.13301124
-0.28547227 -0.4434511 -0.06738123 -0.13562994 0.10549112 0.015282804 -0.64806706 2.165401
-0.55937666 -0.0055267042 0.107026294 0.025738416 -0.029809164 0.015200173 -0.31815663 0.16021128
0.1278126 0.23918737 0.5045175 0.44590265 -0.27060366 -0.28512833 -0.04182569 -0.10027274
0.006120306 0.111244515 -0.51249665 0.69476634 -0.09553313 0.24867707 -0.4179569 0.2372297
-0.028208433 0.0008328103 -0.11838849 -0.032648996 0.71263087 -0.7663623 -0.75787127 -0.063159265
0.09756554 0.54288584 -0.047046535 -0.010110749 -0.061781798 -0.06493038 -0.026037583 0.23071274
0.027378807 -0.15114778 -0.31030014 -0.11774967 -0.06828736 0.070969105 0.12930828 -0.40032685
0.42247716 0.0718976 -0.16509 0.094315454 0.010043488 -0.15291251 -0.05708002 0.16636714
0.45049667 -0.6141845 0.014804034 -0.008437567 -0.38572565 -0.54182464 -0.016349994 0.056450877
0.13976663 -0.03399692 -0.058285423 -0.14571272 0.28577146 0.10219308 -0.36455712 -0.3116138
0.08598044 0.14001904 0.12954411 -0.11482321 0.15355946 -0.36294016 0.46073824 -0.27765155
-0.58857304 -0.3139168 -0.18651986 0.07753288 0.02521716 0.011624112 0.18283051 -0.036278453
0.1543839 -0.017585497 -0.24377254 0.42439565 -0.082369976 -0.74110395 -0.066639945 0.012634177
0.083683215 0.39784366 0.6075212 -0.2535052 0.8204934 0.16244933 -0.98002374 0.33225104
-0.0014046713 0.030569224 -0.09781521 -0.48117962 -0.8111347 0.030216064 0.12782207 -0.017142048

bias f4 [400]
00000000: ce52 ba3d 699e cfbe 1e7f 21bf 98cc e63e
00000010: 29af a9be 7050 8ebd 1b8b 5d3e 6d87 23bf
00000020: e7e1 083e c649 3c3d 042d fa3b f7ac 76be
00000030: 64a1 203e d2e7 b13d ada0 643c 9f1b 813d
00000040: 39aa ecbb 5904 6abc c8cd 883e afe6 88bd
00000050: d534 d4be 9707 b6be e5d9 2d3c a5e7 983e
00000060: 3ae7 5dbe d8be c8bd 0da1 843e b6c4 d4be
00000070: fdc1 1b3d 897f e8bd 2909 983e 5652 ffbe
00000080: 7131 05bf 01b9 5e3e 0e69 c2be 3049 853d
00000090: 465b c7be 9cca f2be 6a59 1bbe da42 d1be
000000a0: e6ab b5be 33d4 d1be 03b6 1e3e 50f1 283e
000000b0: 72d5 01bf b6b7 99be 3c95 743e b2ca 0c3e
000000c0: bd85 abbe 7013 5f3c 3ded ce3e 0561 04bf
000000d0: c580 873e 7836 8e3e 23c5 bebe 4e30 05be
000000e0: eb63 b03e 0216 c1be 3d46 e5bd 9b3d ae3e
000000f0: aa77 78bc 2626 b9be b1df b8be 5ece 8e3e
00000100: e6c0 7dbe 7a2f 0f3e fed2 b43c 4272 ecbe
00000110: c308 f13d 7a54 dcbe 0db5 fdbe 075f cabe
00000120: 8f7b 97bc 0c4e 2abe 0ec0 bb3e 4f5d aebd
00000130: c75a 9fbe 91d1 e6bd 1345 9e3e 97bb 1dbf
00000140: 6f3c b6be 7a96 823e af07 ecbe 7672 c0bc
00000150: df8a 16bd 1f23 4cbe fb89 e4be 2027 8c3c
00000160: 11fc 8e3e 76a4 7ebe 95b4 d5be a63e 2a3e
00000170: de4b 73be 19ae 1bbf c1e7 883c e571 0ebf
00000180: 87c7 0cbd 07ac ca3e 09f5 64be 841b bd3d
00000190: 95d0 4cbc 45b8 d8be c699 863c 5dd5 8cbe
000001a0: 720c 03bf a388 c53d f799 4abe 34e1 89be
000001b0: e3f4 bd3e cbc0 e73e edab c33d 0be0 6ebd
000001c0: 96cd 933e da48 f83e ec67 06bf 7ee1 77be
000001d0: 1dad a13e 6c55 0d3e 86f4 8abe 6827 013f
000001e0: a055 d4bd 54bf a5be 12a2 07bd 0d8f ed3e
000001f0: bd33 b03e 1f15 0abd e8e3 d63e 560f a33e
00000200: 495b b5be 331e 7bbe c847 343e 785f d6be
00000210: 6285 ca3d 17cb b7be 6c0c a7bd ce50 503d
00000220: f37b 8a3e ac7c 2d3e 3256 c53e 6ade 9a3e
00000230: aa4c 7a3d 081a 56be 3642 403e 23fd c6be
00000240: ea1a 173e 8520 d33e f3cf 2c3e 339b b5be
00000250: 3e94 82bd 3f0e 163e d6b7 37be b18f 943e
00000260: f6e0 46be dbab 76be 352d d7bb ccb0 a03c
00000270: 986b ce3d fe74 383e ee53 1d3e b829 acbe
00000280: 4e03 f1be e170 c5bc d39a 78bd e767 e03c
00000290: 4ce4 09be 26f2 ca3e 2a23 afbd 424d a9be
000002a0: 7565 09bf 38eb 9dbe 5e26 bc3e 2dc5 8abe
000002b0: 9ee5 e43d 2fc6 ff3c 4294 66bd 9d7e 803e
000002c0: 96e0 dbbe 6a2a 8dbd 5537 d03e 529d 823e
000002d0: 6ba4 1abe 1d9f b9bd c1e4 f1bd c4e0 b03e
000002e0: fbba 3d3e 367d 9b3e 0b86 0a3e 7e16 0ebf
000002f0: 2fb0 cd3e f8ca 9dbe 52cd e0be b4d8 93be
00000300: 0779 933e d855 e0be 6b33 bebd f8c2 b03d
00000310: 63ed 0c3d 8f57 50bc 21c8 f03d f5fd cabe
00000320: 7c45 023e 6571 c2be eb03 dabe b6ad a13e
00000330: ae19 a23b bf87 aa3d b247 193d 85f2 423e
00000340: ad6f 6f3d f245 1fbe b535 c9bd f437 a23e
00000350: 3323 a73d 898d 17bf 0301 c03e f04b 1bbd
00000360: fdf8 d9be 9dfe 68be 68e6 5fbd dce9 02bf
00000370: e98c fe3b f45d 6d3e 14b8 923e 4cc6 ae3e
00000380: b242 d7be f9cd 2f3e e8b5 f93c 857a 8f3c
00000390: 6e47 e9be 3f4b bcbe 1327 1ebe c636 263d
000003a0: 15f3 a9be 2e16 383d f52d f7bd 6bbd 9cbd
000003b0: 0032 12be afac 953e 0e4b 8abe 0b27 823e
000003c0: a213 83bb 6c96 f5bc 1111 a4be 5fc9 88be
000003d0: 1efe d73d f03c 833e d461 cbbe 7667 3e3e
000003e0: 0e38 4d3e 589c 5cbc ee71 a23d 72a2 343e
000003f0: 539a e83a c4bf 3f3e 6406 ff3c 4c1a debd
0.09097825 -0.40550545 -0.6308459 0.45077968 -0.3314145 -0.06948936 0.21635096 -0.6387852
0.13367425 0.045968793 0.007634761 -0.24089418 0.15686566 0.08686794 0.013954324 0.063040964
-0.0072224406 -0.014283263 0.267195 -0.066846244 -0.41446558 -0.35552666 0.010611032 0.2986423
-0.21670237 -0.098020256 0.25904122 -0.4155633 0.0380268 -0.113524504 0.2969449 -0.49867505
-0.52028567 0.21750261 -0.37970775 0.065081 -0.38936824 -0.47420204 -0.15170828 -0.40871316
-0.3548271 -0.40982208 0.1549912 0.16498303 -0.50716317 -0.30022973 0.23885053 0.13749197
-0.33500472 0.013615474 0.40415373 -0.5171054 0.2646543 0.2777593 -0.37259778 -0.13006708
0.3445123 -0.37712103 -0.111950375 0.34031376 -0.015165249 -0.36161917 -0.36108163 0.2789182
-0.24780616 0.13982955 0.022073265 -0.46180922 0.11769249 -0.430332 -0.49552193 -0.39525625
-0.018491535 -0.16631335 0.36669964 -0.08513891 -0.31123945 -0.1127044 0.30912074 -0.61614364
-0.35592982 0.2550543 -0.46099612 -0.02349208 -0.03675353 -0.19935273 -0.4463652 0.0171085
0.27926686 -0.24867424 -0.41739336 0.16625461 -0.2375941 -0.60812527 0.016712071 -0.5564254
-0.03436997 0.3958437 -0.22359098 0.09233764 -0.012500902 -0.42328086 0.016430747 -0.27506533
-0.51190865 0.09645202 -0.19785295 -0.2692963 0.37100896 0.45264277 0.095542766 -0.058319133
0.28867787 0.4849308 -0.5250232 -0.24207112 0.31577387 0.13802117 -0.27139682 0.50450754
-0.10367894 -0.32372534 -0.033113547 0.46398202 0.34414473 -0.03371155 0.41970754 0.31847638
-0.35421208 -0.24523239 0.17605507 -0.41869712 0.09888722 -0.35897133 -0.08156666 0.05085831
0.2704769 0.1694209 0.38542324 0.30247813 0.06110827 -0.20908368 0.18775257 -0.38865003
0.1475636 0.41235748 0.16876201 -0.3546997 -0.06375931 0.14653872 -0.17941222 0.29015878
-0.19421753 -0.24088995 -0.0065666684 0.019615553 0.10079116 0.18013379 0.15364048 -0.3362558
-0.47072834 -0.024101676 -0.060694527 0.027393294 -0.13465995 0.3963787 -0.08551629 -0.33066756
-0.53670436 -0.3084352 0.36748022 -0.27103558 0.111766085 0.031222431 -0.056293733 0.25096598
-0.42944783 -0.068928555 0.40667215 0.2551065 -0.15101783 -0.090635516 -0.118112095 0.34546483
0.18528359 0.30368966 0.13527696 -0.5550307 0.4017348 -0.30818915 -0.43906647 -0.2887627
0.28803274 -0.43815494 -0.09287151 0.08630937 0.034406077 -0.012716188 0.117569216 -0.3964688
0.12721819 -0.37977138 -0.42581114 0.31577843 0.004946909 0.08326673 0.03742189 0.19037826
0.05845611 -0.15554026 -0.09824697 0.31683314 0.081610106 -0.5920034 0.37500772 -0.037914217
-0.42572775 -0.22753377 -0.054663092 -0.5113809 0.0077682626 0.23180372 0.28656065 0.34135664
-0.42043072 0.17168416 0.030482247 0.017514477 -0.4556231 -0.36776158 -0.15444593 0.04057958
-0.3319327 0.044943027 -0.120693125 -0.07653316 -0.14276886 0.2923331 -0.27010387 0.25420412
-0.004000143 -0.029978953 -0.3204427 -0.26716134 0.10546516 0.2563243 -0.39723074 0.18594155
0.20040914 -0.01346501 0.079318866 0.17640093 0.0017746188 0.18725497 0.031130977 -0.108448595

weight f4 [200, 400]
00000000: aaed a93d 29a3 a73e 71d9 0d3f ed94 a4be
00000010: c26d a33e 9d07 a1be 076b 4abe 80d4 173f
00000020: 249d 16bf 6764 16be d45b 2ebd 1c05 223e
00000030: 5d05 b4be 084f 70be a671 3bbf ec80 e53d
00000040: a8a5 3fbe 4b34 94bd 1cd6 48be e128 013e
00000050: 22b6 043f 5572 f43e 662e a93d 7d55 093e
00000060: af1a fa3e eff0 633d ff9d 21bf 6344 be3e
00000070: 4fd7 8cbb 946b 463e c4f3 2bbf d715 133f
00000080: 6b77 7e3e a343 06bf 27ec 903e f74b 5d3c
00000090: 8123 313e 62f1 cd3d d99a 303e 98ca cb3e
000000a0: a968 ba3d 0a86 4d3e fb8c e13d 28c3 86be
000000b0: a166 983e b4a5 fb3d b64f adbe dabe 8e3e
000000c0: 9296 7d3e b47b 1dbe 16af d0be e699 a13e
000000d0: ac9e f7be 0860 453d c0b6 31bc 8786 18be
000000e0: 6edf 04bf d734 e33e fd94 be3e 3a8e adbe
000000f0: 8821 0f3e a078 e73d 8df0 9e3e 39a3 80be
00000100: 9826 673e c48a b13d c057 bf3e eaa5 d03d
00000110: ffb4 40be 1b13 be3e 0545 ea3e 7073 1b3f
00000120: 09c0 5f3e 4e2e 863e b3f0 d4be 7cb4 ec3d
00000130: 12e4 ff3d a597 3e3e 3182 653e 7664 1d3f
00000140: d731 b33d 40c7 80be 2c58 0b3f ae9d 17bf
00000150: 68fe 30be 38e0 4a3e 46e6 e53e 4383 cb3d
00000160: 4513 93be 01c1 4f3e ec5f cb3e d816 2fbe
00000170: 7d10 5f3e 76a7 0c3f 1dc2 973d 5143 0d3f
00000180: a94b ee3e 2ee4 cfbe 2e73 133e 9d31 9bbd
00000190: 4ecd 1c3e a6dc 643e de12 853d dc61 ce3e
000001a0: c227 1d3f 5701 a93d 7b99 1a3f 9a09 733e
000001b0: 5e9d d3be a617 97be b322 8cba 8c33 3bbf
000001c0: edd1 05bf c387 25bf fa06 bf3e cf0d a03e
000001d0: 2a9d b1bd 803f 1e3e a309 8f3e d37a 83bf
000001e0: bc0f 873e 496d d63e 71ab 8cbf 5001 fbbe
000001f0: bca1 56be 43b1 8dbe d30c 9bbe 1583 94be
00000200: 3e0c 133e 7a8c 3a3e eef6 55be 2959 613e
00000210: e4d5 483d e43b 223e 8aa4 8a3e ba7f 123d
00000220: 6b16 6bbf f8e4 8cbd 47e0 66be c063 ca3d
00000230: d654 0f3e 3758 533e ff98 13bf 09b4 043f
00000240: 2975 2abe 3c43 24bf 8823 66bd e09d a83d
00000250: 9475 fe3d 4673 003e 01ef 893e accb 28be
00000260: e9bc f43e 1090 673e 2dfb fabd 4df7 a5bd
00000270: 403d 733d 7247 653d a614 bfbd 14aa c33e
00000280: 089a 153f 033e 983e 4be4 57bf 3df4 d0bd
00000290: c8ef 2e3e e07f 10bf e798 06be c4fe 673e
000002a0: 5009 083f e197 303e 0c1e 17bf ac87 ff3e
000002b0: 1bba 463d abd0 223e 0ef0 7dbe df7c f1bd
000002c0: b42e a43d fd1a 6c3e 9b74 153d c149 4c3c
000002d0: 7388 823e a237 8c3e 53d7 d13e 900b 94bd
000002e0: 3276 283e f788 14bf b157 54bf bdf5 d53d
000002f0: 1131 22be c779 e43e 573c 6c3e fdc3 343e
00000300: 3c7c a3be ddb8 853e e27a f33d 2ebc 3e3e
00000310: 04ba acbe 426d db3d 6486 b7be 4b8e bb3e
00000320: 1b79 d1be d24c 933e 00b6 743e 36a2 52be
00000330: 5506 9a3c f58d a13e cb98 8bbe e757 dabc
00000340: 0c11 85bd 1446 afbd 5b9c 163e ca9b cebe
00000350: 04a5 5fbe 1e73 c83e 3f17 ed3b ca3f 4e3d
00000360: 91bc c73e 2e68 0e3e b333 33bc 1bfc 113f
00000370: 5e69 0fbf be7a 16be 39b3 a6be 6a92 b0be
00000380: c5f5 ec3e 08bb a9bd 3a08 7dbe 11e6 b23c
00000390: fa5a 8b3e 287c a33e 6972 8e3e f10e 7abe
000003a0: 1b41 033e 03c0 c73d 1845 073d 756d 023e
000003b0: e93e ab3e 5c71 cabc 31b8 363e e51e 983c
000003c0: 6095 2cbe 596f f03d 9595 cf3e 28e0 2e3e
000003d0: 8c07 073e ccb4 8fbe ffcf 7f3e b75d ecbe
000003e0: 7e77 86bd 98ea 9ebb a097 79be f423 53be
000003f0: b231 533d 1608 32bf dbe9 27be 9137 3a3e
0.08297284 0.3274167 0.55409914 -0.3214487 0.31919676 -0.3145112 -0.1976739 0.59308624
-0.5883353 -0.14686738 -0.042568043 0.15822262 -0.35160342 -0.23467648 -0.7322029 0.112062305
-0.18715537 -0.072365366 -0.19612926 0.1261325 0.5184041 0.47743478 0.08260803 0.13411517
0.48848483 0.055649694 -0.6313171 0.3716155 -0.0042981277 0.19376975 -0.6716883 0.574552
0.24850242 -0.52446955 0.2830517 0.013506881 0.172987 0.10055806 0.1724657 0.39803004
0.091019936 0.20070663 0.11013218 -0.26320767 0.297658 0.12287465 -0.33849877 0.27879983
0.2476447 -0.1537922 -0.4075858 0.31562728 -0.48363245 0.048187286 -0.010846794 -0.14895068
-0.51903427 0.4437625 0.37223044 -0.33897573 0.13977635 0.11302304 0.310429 -0.2512453
0.22573316 0.086690456 0.37371635 0.101878956 -0.18819045 0.3712395 0.45755783 0.6072302
0.218506 0.26207203 -0.4158989 0.11557862 0.12494673 0.18612535 0.22412945 0.61481416
0.087497406 -0.25152016 0.54431415 -0.59224975 -0.17284548 0.19812095 0.44902247 0.099371456
-0.2872564 0.20288469 0.3972162 -0.17098558 0.21783634 0.54943025 0.07410071 0.5518084
0.465421 -0.40603775 0.14399406 -0.07577822 0.15312693 0.22349796 0.06497739 0.40309036
0.6138879 0.08252209 0.6039044 0.23734131 -0.41331 -0.2951023 -0.0010691494 -0.7312553
-0.52273446 -0.6466028 0.3731001 0.31260535 -0.08672555 0.15453911 0.2793704 -1.0271858
0.26379192 0.41880253 -1.098982 -0.4902444 -0.20960134 -0.27674302 -0.30283222 -0.29006258
0.14360139 0.1821765 -0.20894977 0.22006668 0.049032107 0.15843159 0.27078658 0.03576634
-0.9183108 -0.0687961 -0.22546493 0.09882307 0.13997206 0.2063912 -0.5765533 0.5183721
-0.16646256 -0.6416509 -0.05618623 0.08233237 0.1242477 0.12543973 0.26940158 -0.16483945
0.47800377 0.22613549 -0.12254939 -0.081038095 0.059384584 0.05597634 -0.0933011 0.38215697
0.5843816 0.2973481 -0.8433272 -0.10202835 0.17083657 -0.5644512 -0.13144265 0.22655779
0.5313921 0.17245437 -0.5903022 0.49908197 0.048517328 0.15899913 -0.24798605 -0.117913954
0.080167204 0.2305717 0.036488157 0.012468756 0.25494727 0.27386194 0.40984592 -0.07228768
0.16451338 -0.5802149 -0.82946306 0.104472615 -0.1583903 0.4462416 0.23069893 0.17652889
-0.3193072 0.26117602 0.118886724 0.18626472 -0.3373567 0.10714199 -0.3584472 0.36631998
-0.4091271 0.28769547 0.23897552 -0.20569691 0.018801847 0.31553617 -0.2726501 -0.026653243
-0.06497392 -0.08558288 0.14708082 -0.40353233 -0.21840292 0.39150327 0.007235437 0.050353803
0.39011052 0.13906929 -0.010937619 0.5702531 -0.5602015 -0.1469526 -0.3255861 -0.34486705
0.46281257 -0.082876265 -0.2471017 0.02183822 0.27217847 0.3193066 0.27821663 -0.24419762
0.12817805 0.0975342 0.033024877 0.12737067 0.33446434 -0.024712257 0.17843701 0.01856942
-0.16853857 0.11739988 0.4054381 0.17077696 0.13186473 -0.28067625 0.24981688 -0.4616525
-0.0656576 -0.004849743 -0.24374247 -0.20619184 0.051561065 -0.6954359 -0.16397803 0.1818526

bias f4 [200]
00000000: 7078 eabe f381 0dbc 60b8 c9be 9441 143e
00000010: 6084 a03c 74ee 48bd 7c89 cabe 0897 053d
00000020: b117 3c3c d5b0 32bd 7fbb 07bf 4148 ffbe
00000030: 17c9 2fbe fd65 e9be ab17 9d3d 18d5 9bbc
00000040: ef49 34bc e4c8 6b3e 9371 e8be 2038 91bc
00000050: c258 57bd 3be1 333e 4aae 17be 7c70 a33d
00000060: 5580 c4bc 5f0d 9e3b 5155 89bd 5a56 fdbe
00000070: 7f4f eabe 7ffe 423e c0a9 293e 4d3b 82bd
00000080: c44f 22bd 6c42 213e 6bc7 58bd 747b 74bd
00000090: 1e1c b4be 6213 f9be e679 b73d e356 dfbe
000000a0: 4828 093e 6dca 3ebd 3ee1 c5be 1e6a 303e
000000b0: 6661 c9be 1e20 133d 962b bc3d e32a 133e
000000c0: b5ed f6be c655 323c 8478 81bc e06e aebe
000000d0: ac27 c5be 263b ebbe 0807 a63d e215 643e
000000e0: 66af 003e 3c83 25bd 1556 933d 2e6b 2fbd
000000f0: 8a97 cdbe d0e0 45bd 6cf0 723b 885a 3d3e
00000100: a4d6 e8be 28b3 cbbe 4e4c 1f3e faca 6e3e
00000110: 169f 5f3d 6769 9bbc 3231 f7be 4a28 eabe
00000120: 3128 2ebd 5981 55bd 4614 8f3e d351 593e
00000130: 7836 fd3d 52f1 aabe 5311 c5be adcf 66bd
00000140: 3f48 af3b 386d ebbe 05fd d3be 65a7 76bd
00000150: 5091 a5be 4d63 173e 51a6 e6be a1ab cabe
00000160: f249 c6bc 053e dbbe 6ee2 12ba 0270 51bd
00000170: 714e 153e fdde c4be 50f0 213d 1977 da3d
00000180: 088e aa3d 3652 2b3e 9b3b 4e3c 50b9 65bd
00000190: 88a8 67bd 414f eabe 19e6 ccbe d281 4b3e
000001a0: 4491 e3be 16f1 f03d d7e7 c6be 727f e0be
000001b0: f973 e8be 37ba fe3b 0b97 d7bc 37ed 533d
000001c0: 69fa 81bc 1110 d7be b0f3 2ebc df66 273b
000001d0: 42f8 533e f9d3 eebe a4f9 58bd 9cbd c6be
000001e0: 34ce 073c eab3 cbbb e899 dfbe 8cfb 88bc
000001f0: 5cf9 a7bc acc2 5cbe d9ac 143e d277 c8be
00000200: acd9 d3be e5df 4fbc 2b5b b83d a348 ecbe
00000210: 450e ecbe 37af f0be 43c4 173c e1fe d8be
00000220: 1c69 053e ca42 26bc 5829 82bd 696b 6e3e
00000230: 92af 733d 11cc 073e 5177 13bd 826b 023e
00000240: f75e edbe 5cf4 e2be 113f 643e b1e1 e8be
00000250: fbf9 9a3d 91ad 093c c0b9 01bf 7312 cfbe
00000260: f541 fabe ef18 aebe 209c 4c3e 1d81 f7bb
00000270: 7d40 6f3d 174f 263e 9d33 0a3e 721d d9bc
00000280: 1014 36bd 3f58 6c3c f5a9 0ebe a1bf 293e
00000290: bcad ab3d 23e4 ebbe 3141 c9be 2d4a c0be
000002a0: dc69 cbbe c36e 46bd 519b 363d 758f 23bc
000002b0: 2122 5c3e 43ec 8b3a 6839 543e 6f4f 003d
000002c0: 7692 5a3a 06ff d0be d4eb 45bd 25eb 863e
000002d0: 4a76 9dbe ac95 45bd c4ad 49be 4bab edbe
000002e0: ed91 3ebc c564 ddbe 59ad 193b 52eb d3bc
000002f0: c84c 6e3e 689a f53c 91b4 f8be 7f0a 873d
00000300: d124 08bf 5ed0 0e3e 4bc5 4f3e 600e c2be
00000310: c079 e3be e3d8 2c3d 6324 b03c 84f5 5fbd
-0.45795012 -0.008636939 -0.3939848 0.14478141 0.019594371 -0.04905553 -0.39558017 0.032614738
0.011480258 -0.04362567 -0.5302047 -0.49859813 -0.17166553 -0.45585623 0.0767053 -0.01902251
-0.011003955 0.23025852 -0.4539915 -0.017726958 -0.05257488 0.17566387 -0.1481258 0.07980439
-0.023986975 0.0048233713 -0.06705726 -0.49479944 -0.45763776 0.19042395 0.1656866 -0.06358967
-0.03962685 0.15747994 -0.052924555 -0.059688047 -0.35177702 -0.486476 0.08958797 -0.43620977
0.13394272 -0.046579767 -0.3864841 0.1722798 -0.39332122 0.0359193 0.09188001 0.14371829
-0.4822823 0.010884708 -0.015804537 -0.34068966 -0.3850683 -0.45943564 0.0810681 0.22273973
0.12566909 -0.040408358 0.07194153 -0.042826824 -0.40154678 -0.0483101 0.0037069572 0.18491566
-0.45476258 -0.39785123 0.15556452 0.23319617 0.054595076 -0.018971158 -0.4827972 -0.45733863
-0.0425188 -0.05212531 0.27945155 0.2122262 0.12363905 -0.33387238 -0.3848978 -0.0563504
0.0053491886 -0.45981765 -0.41403976 -0.060218234 -0.32337427 0.14783974 -0.45048764 -0.39584067
-0.024205182 -0.42820755 -0.00056031987 -0.05113221 0.14580704 -0.38451377 0.03953582 0.10667247
0.083278716 0.1673058 0.012587453 -0.05608493 -0.05655721 -0.4576359 -0.400193 0.19873741
-0.44446766 0.117647335 -0.38848755 -0.43847233 -0.4540098 0.0077736634 -0.02631714 0.051739898
-0.015866475 -0.42004445 -0.010678217 0.0025543494 0.20700172 -0.46646097 -0.05297245 -0.38816535
0.008288909 -0.006216516 -0.4367211 -0.01672151 -0.020504646 -0.21558636 0.14519061 -0.39153916
-0.41377008 -0.012687658 0.09001764 -0.46149167 -0.46104637 -0.47008678 0.009263101 -0.42381957
0.13028377 -0.01014776 -0.06355542 0.23283161 0.05949361 0.13261439 -0.03600246 0.12736323
-0.46361515 -0.44327056 0.22289683 -0.4548469 0.07567211 0.008403198 -0.50674057 -0.40443763
-0.48878446 -0.34003398 0.19981432 -0.0075532333 0.05841111 0.16241108 0.13496251 -0.026503298
-0.044452727 0.014425336 -0.13932021 0.16577007 0.083827466 -0.46072492 -0.3930755 -0.37556592
-0.39729202 -0.048445474 0.044581715 -0.009982933 0.21497394 0.001067527 0.20725024 0.031325754
0.00083378644 -0.40819567 -0.048320606 0.26351276 -0.3075431 -0.04823844 -0.19695193 -0.4641975
-0.011631471 -0.43240944 0.002344927 -0.025869045 0.23271477 0.029980853 -0.4857526 0.06593799
-0.5318118 0.13946673 0.20290105 -0.37901592 -0.44428825 0.042199027 0.021501726 -0.0546775

weight f4 [1, 200]
00000000: 8964 54bf f4f2 633d 04b5 56bf 16dd e0be
00000010: 913b 7ebb eb2b 323d a6e7 5bbf 368a 383d
00000020: 8b9e 323b ca7c 813d 7496 49bf 78f3 3ebf
00000030: ed3c 12bf 8b89 3cbf a0e0 b7be 99c2 313d
00000040: 48d8 3cbc 31de b93e 13c4 44bf a683 623d
00000050: 56f7 f73c b581 c1be 70d6 10bf 1485 cb3e
00000060: fa04 e3bc 7039 fdbe 3c39 0a3b 4613 49bf
00000070: 9d9b 51bf 1451 d0be 3222 e23e 702a debe
00000080: 41d7 e33b 98d8 bd3e 49b3 453d a8e6 d4bb
00000090: 0d60 56bf e5b0 4fbf 7fd7 b93e 33e8 57bf
000000a0: cf56 d5be ad43 c73c a77a 4abf 29e8 bfbe
000000b0: ec69 53bf 2d46 c83d 1fa4 b9be bd9f c4be
000000c0: c3dd 54bf c36d e83c 9c9f 6fbc 364b 46bf
000000d0: 25da 4cbf 058f 57bf e181 4a3e 4217 ae3e
000000e0: 14b2 0abf 30a2 763d 38ed ed3e 4552 4f3d
000000f0: a6d6 65bf 8011 673d 02a9 f9be 183e a03e
00000100: bf6d 2ebf dffb 48bf 9b52 c73e b833 b93e
00000110: f6dd 6d3e 4111 803c 024e 4bbf 992f 58bf
00000120: aec6 03bf 2601 5fbb cec8 b73e 3b74 9d3e
00000130: 01d0 bd3e d6b6 22bf 7bf5 5cbf aaa5 373d
00000140: 9491 863d 4215 57bf 365c 4bbf dbca ddbb
00000150: ed60 44bf 31d0 f0be 50b7 3cbf a467 55bf
00000160: f3e8 a8ba d6fc 53bf 7fa2 6f3d e8ce 073d
00000170: 7c84 dfbe 7c3b 51bf accf a83e dc6b a03e
00000180: 52a2 a53f 6e78 a83e 8e91 0bbb 6c4c f13c
00000190: 2843 1c3b 702c 52bf 4c62 21bf b50e c0be
000001a0: e1da 56bf 174c 843e e041 4bbf 6080 4bbf
000001b0: 7692 4bbf ae5b 483a 5fbc 4b3c 2113 603e
000001c0: af07 15bc 56ac 52bf b9fe afb9 e172 753d
000001d0: 8a1e c93e 2b16 4ebf 8a51 2f3d 86c4 42bf
000001e0: 2a2a 993e 0ca5 013d 96b0 48bf c276 4d3c
000001f0: 5e42 163d c40f 3dbf 5e3a d1be 03ca 51bf
00000200: 8ca5 3dbf cc41 0e3d a426 ea3e bf1b 48bf
00000210: 44c4 53bf 49e2 5ebf 8c40 8fbb 92dc 31bf
00000220: a67b a73e 7f67 6bbd 8cad 4f3d 6a5d 993e
00000230: 0a06 223e fc8b a83e c50a 1bbd 7891 bdbe
00000240: 1702 56bf b0d8 36bf f685 ca3e 374c 45bf
00000250: 65e2 b43e d51d 813d 1230 39bf fbb3 45bf
00000260: b7c0 53bf 3b21 45bf c80c c43f 6754 d83c
00000270: 659d b3be 3a46 6d3e 9530 973e a36f ff3b
00000280: 989f 383d 7037 1f3d 99a8 dfbe 62ae dabe
00000290: d122 983e 234f 4ebf 78e8 3ebf aecd 51bf
000002a0: c0a8 40bf 0b6f 9f3c b088 febc d494 813c
000002b0: dff7 d23e 5a58 463c b15d cfbe 2431 e53c
000002c0: 4f0d 513c cc27 50bf a09f b33c 3fa7 cc3e
000002d0: 647e 3cbf ef1b f63b 79bd 9dbe 8804 4bbf
000002e0: 6f08 2e3d d8c0 4dbf 20b6 0dbb c097 143c
000002f0: 7966 bd3e 77df 2c3d e7a2 50bf 5a60 f13e
00000300: 8b65 59bf dca9 e1be 104a a43e 4f83 29bf
00000310: e694 52bf d015 873e 770f 733c 8293 10bc
-0.82965904 0.05565162 -0.8386996 -0.43918675 -0.0038792829 0.043498915 -0.8590034 0.045053683
0.0027255144 0.0632263 -0.787452 -0.74590254 -0.57124215 -0.73647374 -0.35913563 0.043398473
-0.011526175 0.3630233 -0.76861686 0.05530133 0.030269306 -0.3779427 -0.56577206 0.39749968
-0.027712334 -0.49457884 0.0021091243 -0.78545034 -0.8187807 -0.40686858 0.44166714 -0.43391752
0.0069531505 0.3707931 0.048266683 -0.006497223 -0.8374031 -0.81129295 0.36297223 -0.8433868
-0.41667792 0.024324263 -0.790934 -0.37481812 -0.825835 0.0977901 -0.36258027 -0.3840312
-0.8315088 0.028372651 -0.014625456 -0.7745851 -0.8002036 -0.84202605 0.19776107 0.3400212
-0.54177976 0.060213268 0.46470046 0.050615568 -0.8978065 0.056413174 -0.48761755 0.31297374
-0.6813621 -0.78509325 0.3893021 0.3617227 0.23229203 0.015633227 -0.79415905 -0.8444763
-0.51475036 -0.0034027784 0.3589539 0.3075274 0.37072757 -0.63560236 -0.86312073 0.044835724
0.065707356 -0.8401681 -0.7943758 -0.006768567 -0.76710397 -0.47033837 -0.7371721 -0.8336127
-0.0012886807 -0.8280767 0.058504578 0.033156306 -0.43655765 -0.8173139 0.3297094 0.3133229
1.2940161 0.3290438 -0.0021296474 0.029455386 0.002384374 -0.82099056 -0.63040614 -0.3751122
-0.8392773 0.25839302 -0.7939739 -0.7949276 -0.79520357 0.0007643056 0.012435048 0.21882297
-0.00909607 -0.82294214 -0.00033568384 0.05992401 0.39281112 -0.80502576 0.04280237 -0.7608112
0.2991498 0.03165154 -0.7839445 0.012540521 0.036684386 -0.7385218 -0.40864843 -0.8194887
-0.7408073 0.034730718 0.45732605 -0.7816734 -0.8272135 -0.87064034 -0.0043717083 -0.6947719
0.32711524 -0.05747175 0.050702617 0.29954082 0.15822616 0.329193 -0.037852068 -0.37025046
-0.8359694 -0.7142439 0.3955533 -0.7706942 0.35328975 0.06304518 -0.72338974 -0.77227753
-0.82715935 -0.7700383 1.53164 0.026407434 -0.3508102 0.2317132 0.29529253 0.0077952906
0.045074075 0.03887123 -0.43683317 -0.4271117 0.29714063 -0.80589503 -0.7457347 -0.8195447
-0.7525749 0.01946213 -0.031071037 0.015818037 0.41204736 0.012106026 -0.40501168 0.027977534
0.012759521 -0.81310725 0.021926701 0.3997135 -0.73630357 0.007510654 -0.3080862 -0.7930379
0.04248851 -0.8037238 -0.0021623448 0.009069383 0.36992243 0.0422053 -0.8149857 0.47143823
-0.8492057 -0.44074905 0.32087755 -0.66215986 -0.8225845 0.2638383 0.01483523 -0.008824231
