Labs/2/problem1/neural-network-1.pth (torch, 50860 bytes, 7 tensors)

weight f4 [100, 8]
-0.037911832 0.29797462 -0.45107424 -0.7306655 -0.1151899 0.03977024 0.15396929 0.44058946
-0.043596033 0.0409949 -0.18928373 0.23256753 -0.05226117 -0.4132083 -0.75502455 0.049844455
4.244337e-05 0.2535997 -0.53223646 -0.5212982 0.21325414 0.24132767 0.13832566 0.4042002
0.22717434 -0.51407397 0.50259674 -0.20760678 -0.8013864 -0.25266558 -0.01350219 0.48820788
-0.27163646 0.055740364 -0.5058229 -0.50557524 0.32953414 0.43489787 0.26794744 0.2515391
0.059704423 -0.07101364 0.11397345 -0.5978416 -0.37202412 -0.38697007 0.32791007 0.2437435
-0.21767268 -0.03538901 0.1186711 0.46474907 0.2824095 0.29608423 0.37510183 -0.16593859
0.5793897 -0.077770814 -0.074684575 -0.1321176 0.835852 0.36528692 -0.06727635 -0.27124518
0.18988623 -0.0065537486 0.46142873 0.0040091895 0.011196741 0.5125926 -0.49527144 -0.43991616
-0.040361825 0.40352133 0.41876853 0.6868445 -0.46731386 -0.47300297 -0.56507814 -0.47491843
-0.7283019 0.6842926 0.4574362 -0.97169214 0.026474452 0.00806325 -0.11226645 -0.051254217
0.5171323 -0.11652918 0.44126716 0.2039999 0.44352403 0.5739726 -0.28112254 -0.4067862
0.21876016 0.057573885 -0.07216163 -0.5125538 0.60661644 0.43077952 0.14305842 0.09569286
-0.4771744 -0.48944178 -0.61341757 -0.20003825 0.23469606 0.1980473 0.11736728 0.43651134
-0.28654036 0.4975965 0.23431583 -0.7857682 -0.18309264 -0.10695818 0.20090058 0.23667051
0.64276206 0.235182 -0.37005118 -0.29850286 0.41970253 -0.31156093 -0.7482145 -0.30723065
0.03777303 -0.08173609 -0.1727951 -0.45890126 -0.26943877 -0.24816613 0.39507395 0.16243921
0.047557786 0.032430667 0.15027052 0.10556238 0.44560587 0.35380158 0.5016596 0.11913028
-0.7627392 0.011368232 -0.3378529 -0.093390815 0.31609792 -0.54299635 -0.855483 -0.26530653
-0.07147374 0.39595976 0.18467143 -0.8348879 0.22490479 -0.43561357 0.061416127 0.0003377538
-0.10684104 -0.45800155 -0.49336657 -1.4026996 -0.09781964 -0.062230457 -0.087158464 0.20477958
-0.8235823 -0.026925601 -0.102168806 0.16643943 0.18836427 0.34185266 -0.023262665 0.40605375
0.049371038 -0.36587432 0.43618035 -1.790704 0.26099646 -0.20025447 0.27936143 0.09932352
0.7821585 -0.3463778 -0.16996121 -0.16036841 -0.11897625 -0.16306409 0.4221753 0.31733015
-0.19720122 -0.29280385 -0.503981 -0.21235621 0.7721197 0.19669114 -0.21007521 -0.13105229
0.046050485 -0.32108593 -0.47310895 -0.18466355 0.017034555 0.30855078 0.15882504 0.4403979
0.19325292 -0.015043362 -0.12557834 -0.16309038 0.1206598 -0.28798452 0.12625438 0.28629413
-0.17659608 0.091102704 0.08745257 -0.5536975 0.3788256 0.37902403 0.23389772 0.24133472
-0.0029275029 -0.18142234 -1.5062622 -0.066856 -0.17832768 -0.05342793 0.2015462 0.44079408
-0.003326655 0.5179823 0.17755401 -0.64571553 0.20289299 -0.62815136 -0.06129383 0.26761556
0.1878271 0.35511366 -0.26864725 -0.14387937 0.31143838 -0.8587344 0.31554657 -0.114750795
-0.2062335 -0.08109216 0.404414 0.058076166 1.2498327 0.7292952 -0.03827412 -0.43995366
00000000: 7049 1bbd 2190 983e 34f3 e6be e50c 3bbf
00000010: afe8 ebbd 1fe6 223d 20aa 1d3e f194 e13e
00000020: c191 32bd 45ea 273d 98d3 41be 2f26 6e3e
00000030: cf0f 56bd 0a90 d3be 4a49 41bf b329 4c3d
00000040: 3905 3238 d2d7 813e a640 08bf cd73 05bf
00000050: 4b5f 5a3e 9a1e 773e 3ea5 0d3e 54f3 ce3e
00000060: 64a0 683e 5a9a 03bf 2eaa 003f df96 54be
00000070: a927 4dbf 625d 81be 4a38 5dbc 62f6 f93e
00000080: ef13 8bbe 0250 643d 9c7d 01bf 616d 01bf
00000090: b3b8 a83e efaa de3e 6830 893e bcc9 803e
000000a0: a08c 743d 996f 91bd ea6a e93d 260c 19bf
000000b0: f279 bebe f120 c6be d4e3 a73e e597 793e
000000c0: 96e5 5ebe 11f4 10bd d509 f33d 97f3 ed3e
000000d0: fa97 903e 5a98 973e 590d c03e ceeb 29be
000000e0: e252 143f 4e46 9fbd 3af4 98bd d649 07be
000000f0: 66fa 553f e306 bb3e 2fc8 89bd a6e0 8abe
00000100: 8971 423e d4c0 d6bb 6340 ec3e 855f 833b
00000110: 8972 373c 4539 033f 3894 fdbe b13c e1be
00000120: 7152 25bd 599a ce3e d468 d63e 0bd5 2f3f
00000130: c343 efbe 722d f2be f6a8 10bf 8228 f3be
00000140: fe71 3abf cd2d 2f3f 1435 ea3e d1c0 78bf
00000150: f3e0 d83c b91b 043c f4eb e5bd f1ef 51bd
00000160: c862 043f daa6 eebd c5ed e13e 5ae5 503e
00000170: 9515 e33e deef 123f 4bef 8fbe 4846 d0be
00000180: aa02 603e 98d2 6b3d 7ac9 93bd ba36 03bf
00000190: 374b 1b3f 228f dc3e e87d 123e 9efa c33d
000001a0: 3450 f4be 1d98 fabe ef08 1dbf d4d6 4cbe
000001b0: 2a54 703e e9cc 4a3e 425e f03d 6a7e df3e
000001c0: 6bb5 92be f8c4 fe3e 7df0 6f3e 1b28 49bf
000001d0: a37c 3bbe e40c dbbd e2b8 4d3e c159 723e
000001e0: 0e8c 243f 8dd3 703e 5977 bdbe 5ed5 98be
000001f0: 40e3 d63e ea84 9fbe fc8a 3fbf 564d 9dbe
00000200: e5b7 1a3d 4065 a7bd 33f1 30be 1bf5 eabe
00000210: e1f3 89be 431f 7ebe 2247 ca3e 7756 263e
00000220: f4cb 423d 05d6 043d 84e0 193e 1731 d83d
00000230: 7426 e43e 7b25 b53e c36c 003f 94fa f33d
00000240: e042 43bf d241 3a3c 0efb acbe af43 bfbd
00000250: 96d7 a13e cf01 0bbf ef00 5bbf 42d6 87be
00000260: d360 92bd 3dbb ca3e 821a 3d3e 37bb 55bf
00000270: 714d 663e be08 dfbe 7a8f 7b3d 8c14 b139
00000280: 7acf dabd 2e7f eabe 8b9a fcbe a98b b3bf
00000290: aa55 c8bd 5de5 7ebd 2380 b2bd bdb1 513e
000002a0: 4ad6 52bf 1493 dcbc e13d d1bd 196f 2a3e
000002b0: 90e2 403e 5007 af3e 5891 bebc 47e6 cf3e
000002c0: 4939 4a3d e153 bbbe 0853 df3e ca35 e5bf
000002d0: 54a1 853e 820f 4dbe 7608 8f3e 216a cb3d
000002e0: 8a3b 483f 6e58 b1be 500a 2ebe 9e37 24be
000002f0: d2a9 f3bd 46fa 26be 5c27 d83e 1979 a23e
00000300: 1eef 49be 63ea 95be e604 01bf e873 59be
00000310: a3a9 453f 6769 493e f51d 57be 9232 06be
00000320: 6f9f 3c3d 6065 a4be 563b f2be 7118 3dbe
00000330: 0d8c 8b3c 5efa 9d3e 08a3 223e d57b e13e
00000340: 18e4 453e 6f78 76bc 9c97 00be 2a01 27be
00000350: 7c1c f73d b572 93be d448 013e 2595 923e
00000360: 9ad5 34be 0e94 ba3d 551a b33d 1fbf 0dbf
00000370: 6ef5 c13e 700f c23e e282 6f3e 7320 773e
00000380: 59db 3fbb c7c6 39be 33cd c0bf cceb 88bd
00000390: 889b 36be 3fd7 5abd 2162 4e3e c3af e13e
000003a0: 0204 5abb 7d9a 043f b8d0 353e 9d4d 25bf
000003b0: 2ec3 4f3e 87ce 20bf 3d0f 7bbd e804 893e
000003c0: bf55 403e 75d1 b53e 228c 89be 1d55 13be
000003d0: da74 9f3e 05d6 5bbf 528f a13e 7702 ebbd
000003e0: e02e 53be a513 a6bd 5a0f cf3e 46e1 6d3d
000003f0: 85fa 9f3f 17b3 3a3f 53c5 1cbd 9b41 e1be

bias f4 [100]
0.51902634 -0.58055294 0.58431166 -0.23990622 0.022191158 0.3929305 0.47230172 -0.32404894
0.0654387 0.24916404 0.088058606 0.12000173 0.34993017 -0.22204332 0.4622836 0.1268361
0.26579016 0.46154398 0.042240016 0.5833501 0.5416908 -0.09988085 0.42480016 -0.11707937
-0.16270714 -0.2599862 0.093121596 0.2401022 0.08916056 0.3333028 0.51600575 -0.28653213
0.03633571 -0.08639887 -0.102636725 0.13210198 -0.054943554 -0.16879402 0.1225387 0.34197584
0.19448858 0.023485273 0.18955597 0.26865184 0.23130168 0.1406524 0.18871896 0.68564117
0.30184603 0.29597247 0.07088415 -0.122974254 0.18868287 -0.05827838 0.35506842 -0.39129987
0.41954175 -0.09516575 0.55433017 -0.23597051 0.25044572 0.09680266 0.3076941 -0.09436195
0.36947063 -0.084973134 -0.32630542 0.19015452 0.1371417 0.07975139 0.3348595 0.05231195
-0.52117354 0.2842863 0.092104405 0.1648119 0.24372436 0.6948241 -0.14401516 -0.5941861
-0.29163992 -0.002651332 0.000564212 0.73268425 0.46292043 0.22929567 0.57952964 -0.45032525
0.26808497 0.3543411 -0.07525026 0.41578862 0.27550206 0.6531652 0.15064596 0.35640314
-0.3403024 -0.36507303 0.15027426 0.3235321
00000000: e9de 043f 1e9f 14bf 7395 153f faa9 75be
00000010: 3bca b53c 302e c93e 88d1 f13e bee9 a5be
00000020: ba04 863d dc24 7f3e 1258 b43d 78c3 f53d
00000030: 0c2a b33e 535f 63be 70b0 ec3e 53e1 013e
00000040: a615 883e 7e4f ec3e de03 2d3d 6f56 153f
00000050: 40ac 0a3f 558e ccbd 687f d93e 4fc7 efbd
00000060: b39c 26be e91c 85be 89b6 be3d 5add 753e
00000070: d099 b63d aaa6 aa3e f418 043f 57b4 92be
00000080: c1d4 143d e4f1 b0bd 3433 d2bd be45 073e
00000090: 7e0c 61bd 57d8 2cbe 92f5 fa3d 7517 af3e
000000a0: 0428 473e 3064 c03c f61a 423e bc8c 893e
000000b0: 59da 6c3e 2f07 103e 8b3f 413e 2e86 2f3f
000000c0: 908b 9a3e b489 973e b62b 913d edd9 fbbd
000000d0: 1536 413e 50b5 6ebd 87cb b53e 7558 c8be
000000e0: 2dce d63e 43e6 c2bd 95e8 0d3f 41a2 71be
000000f0: 6c3a 803e 7940 c63d 158a 9d3e d740 c1bd
00000100: 412b bd3e 6506 aebd 8111 a7be deb7 423e
00000110: e06e 0c3e b254 a33d b472 ab3e 0e45 563d
00000120: a16b 05bf f98d 913e 3ca1 bc3d 73c4 283e
00000130: e192 793e fedf 313f b678 13be 951c 18bf
00000140: d451 95be f8c1 2dbb a0e7 133a 3291 3b3f
00000150: e803 ed3e 7ccc 6a3e 0e5c 143f 0891 e6be
00000160: 6f42 893e 326c b53e cf1c 9abd 3fe2 d43e
00000170: 9b0e 8d3e d635 273f ef42 1a3e 797a b63e
00000180: 1e3c aebe daea babe 7fe1 193e 00a6 a53e

weight f4 [100, 100]
0.41181833 0.097812735 0.40045258 -0.22022086 0.021914635 0.025001802 -0.2236106 -0.42391858
-0.248262 -0.17835854 0.5844357 -0.44187576 -0.0015214587 -0.16702303 0.43445465 -0.22317694
-0.23660041 -0.2406906 -0.17642176 0.38083178 0.45557135 -0.3060411 0.44456154 -0.02249095
-0.043509595 -0.18520297 0.01554034 -0.2818335 0.58671314 0.42351273 0.49833775 0.61103064
0.51248205 -0.020907411 -0.08191724 0.46594274 0.865451 -0.41303068 0.004040511 -0.17824082
-0.044545177 0.2485428 0.19739296 0.44569847 0.35389704 -0.19975871 -0.38551918 0.24214227
-0.183356 -0.19844419 -0.10082845 0.9195125 -0.3112069 -0.35442927 0.71517324 -0.2687327
-0.104571424 -0.046830334 0.3052832 -0.42044893 -0.1507731 0.64759207 0.2405593 -0.4511545
-0.15108818 -0.18611021 0.261569 -0.26114205 0.15260378 -0.04050762 -0.05805153 0.04270659
-0.13748324 -0.2072097 0.393308 -0.023750324 0.3951406 0.38079035 -0.29884273 0.09310938
-0.33520362 -0.24414392 0.02058626 0.3949566 0.7869136 -0.15291125 0.2852719 -0.5255779
-0.37550464 0.0074784844 -0.10177483 -0.020997385 -0.03398766 0.35092685 0.51178145 0.41026196
-0.23390494 -0.30039185 0.046679933 -0.018962031 -0.0013769274 0.18678902 0.029979276 0.45203394
0.18269834 0.28672668 0.06896787 0.4398126 0.14992435 0.31711912 -0.26755205 0.45926428
0.26322842 0.2338185 -0.038748085 0.383546 0.40752596 0.20416918 0.27374196 0.03218191
-0.014386923 0.2971827 -0.30078268 0.30826786 0.28494117 0.104356796 0.3305165 0.295788
-0.21464245 0.028233869 0.023614334 -0.3200076 -0.3692796 0.2501181 0.32825416 -0.21336459
-0.3468648 0.60106885 0.20585337 0.3092828 0.08205154 0.09569526 0.032019697 -0.14887987
-0.13084266 0.24532574 0.42725942 -0.09785432 0.22393908 0.3277049 0.19686016 -0.4867907
0.53879553 0.44731733 -0.3196635 0.23243117 0.31032702 0.2868046 0.15732425 0.6705089
0.12623793 -0.113956295 0.06862369 0.69818306 0.2282473 0.2668822 -0.07565841 0.3475399
0.20644252 0.4102324 0.21966821 0.3339998 0.6454731 0.18221971 -0.18252334 0.11645519
-0.10067581 -0.05187524 0.43040892 0.20455362 0.39538154 0.38632935 0.3374776 -0.2297452
-0.39566967 0.40265226 0.056283224 1.1294649 0.31186104 0.11998948 0.30805334 0.4379269
0.29422858 0.03164223 -0.4907569 -0.40809923 0.39559072 0.60969937 0.1909859 0.33310983
-0.008983634 -0.019990422 0.07883773 0.07379872 -0.06777573 0.04645268 -0.07843826 -0.08513214
0.03056819 0.0014696494 -0.046650637 -0.09645038 -0.03871361 0.033399947 -0.09256015 -0.09714655
0.012687251 -0.07204042 -0.08760803 -0.03852862 -0.016100086 -0.09087052 -0.066772774 0.0065567866
-0.09429717 -0.014055446 -0.06457028 -0.06932373 0.0393031 -0.07696897 -0.07578342 0.057028152
0.018696629 0.091071285 -0.026729546 -0.048301507 -0.009254649 0.0005059391 0.07626443 -0.099608
-0.007120073 0.044235222 -0.055068303 -0.05081408 0.048326783 -0.09581852 0.023695573 -0.07741865
0.049706183 -0.08550405 0.06148047 -0.09466326 -0.084056675 0.0014736876 0.07879884 -0.08563956
00000000: dad9 d23e 0b52 c83d 1f08 cd3e 9481 61be
00000010: 5286 b33c 94d0 cc3c 2dfa 64be db0b d9be
00000020: 6538 7ebe 9fa3 36be 949d 153f 8a3d e2be
00000030: af6b c7ba 1608 2bbe d770 de3e 7f88 64be
00000040: 6147 72be 9977 76be e8a7 34be 62fc c23e
00000050: a640 e93e 6bb1 9cbe 929d e33e f13e b8bc
00000060: 1e37 32bd d9a5 3dbe e99c 7e3c 7b4c 90be
00000070: d532 163f a9d6 d83e 2026 ff3e 816c 1c3f
00000080: 0632 033f 0546 abbc 3ac4 a7bd 0c90 ee3e
00000090: 328e 5d3f c278 d3be 4366 843b c384 36be
000000a0: 0175 36bd 0182 7e3e 6121 4a3e 9732 e43e
000000b0: fe31 b53e 8c8d 4cbe c562 c5be 25f4 773e
000000c0: adc1 3bbe f434 4bbe 257f cebd 2c65 6b3f
000000d0: 8356 9fbe c177 b5be 9815 373f 5597 89be
000000e0: 8b29 d6bd 2ad1 3fbd 144e 9c3e 1545 d7be
000000f0: 4364 1abe 98c8 253f 2d55 763e b9fd e6be
00000100: dcb6 1abe ad93 3ebe 5fec 853e 69b4 85be
00000110: 2a44 1c3e 51eb 25bd 71c7 6dbd 1bed 2e3d
00000120: 68c8 0cbe c82e 54be ab5f c93e 0a90 c2bc
00000130: de4f ca3e f4f6 c23e ea01 99be 21b0 be3d
00000140: cf9f abbe dd00 7abe 84a4 a83c c037 ca3e
00000150: 2b73 493f c494 1cbe 290f 923e 468c 06bf
00000160: 2542 c0be 130e f53b 526f d0bd b502 acbc
00000170: a536 0bbd afac b33e 1c04 033f db0d d23e
00000180: c784 6fbe f6cc 99be 7533 3f3d 4356 9bbc
00000190: 047a b4ba 9f45 3f3e 1997 f53c fe70 e73e
000001a0: 4615 3b3e d7cd 923e 073f 8d3d 1e2f e13e
000001b0: c585 193e 705d a23e 95fc 88be b024 eb3e
000001c0: e0c5 863e 1e6e 6f3e 50b6 1ebd 2460 c43e
000001d0: 3ea7 d03e ba11 513e e827 8c3e 2ed1 033d
000001e0: 21b7 6bbc 5528 983e 3000 9abe 49d5 9d3e
000001f0: cfe3 913e 04b9 d53d 7539 a93e 8671 973e
00000200: 3bcb 5bbe b74a e73c d972 c13c 09d8 a3be
00000210: 3712 bdbe 7b0f 803e ee10 a83e 3f7c 5abe
00000220: 4398 b1be a6df 193f 3acb 523e 515a 9e3e
00000230: a30a a83d e0fb c33d 1627 033d f773 18be
00000240: 9efb 05be ac36 7b3e bfc1 da3e d967 c8bd
00000250: 4950 653e f0c8 a73e b695 493e a13c f9be
00000260: 81ee 093f c706 e53e efaa a3be 7002 6e3e
00000270: 2fe3 9e3e 0dd8 923e 9c19 213e 79a6 2b3f
00000280: 8444 013e eb61 e9bd 948a 8c3d 20bc 323f
00000290: a9b9 693e c9a4 883e ccf2 9abd c0f0 b13e
000002a0: ab65 533e fb09 d23e b4f0 603e 0602 ab3e
000002b0: ba3d 253f ce97 3a3e 66e7 3abe 0f80 ee3d
000002c0: 1e2f cebd 227b 54bd 8f5e dc3e 8176 513e
000002d0: 736f ca3e f6cc c53e ddc9 ac3e 5342 6bbe
000002e0: 3795 cabe 7028 ce3e 3d89 663d 4e92 903f
000002f0: 40ac 9f3e 0bbd f53d 2bb9 9d3e f437 e03e
00000300: 21a5 963e 489b 013d 7d44 fbbe 62f2 d0be
00000310: de8a ca3e 4215 1c3f cf91 433e 5f8d aa3e
00000320: 1830 13bc f4c2 a3bc ad75 a13d c923 973d
00000330: 00ce 8abd 2a45 3e3d 3da4 a0bd c259 aebd
00000340: 246a fa3c 40a1 c03a bd14 3fbd c787 c5bd
00000350: 2a92 1ebd 62ce 083d 2d90 bdbd c5f4 c6bd
00000360: 30de 4f3c ed89 93bd d76b b3bd 30d0 1dbd
00000370: 54e4 83bc 531a babd 2ac0 88bd 50da d63b
00000380: e01e c1bd d048 66bc 6c3d 84bd 9af9 8dbd
00000390: 4afc 203d e8a1 9dbd 5634 9bbd 5a96 693d
000003a0: ac29 993c 9583 ba3d ecf7 dabc cdd7 45bd
000003b0: d0a0 17bc 00a1 043a 8730 9c3d 47ff cbbd
000003c0: 804f e9bb fe2f 353d 4d8f 61bd 6d22 50bd
000003d0: 4ef2 453d 803c c4bd 381d c23c ab8d 9ebd
000003e0: b698 4b3d bf1c afbd f2d2 7b3d d0de c1bd
000003f0: e825 acbd c028 c13a 4961 a13d cb63 afbd

bias f4 [100]
0.43447223 -0.09133387 -0.040119637 0.07624169 -0.10917022 0.06296935 0.26889935 -0.1798206
-0.19398871 -0.023795761 -0.08609674 -0.06604745 0.21337982 0.075113215 0.27717614 0.35947493
0.08666265 -0.22138183 -0.04394188 -0.07966983 -0.12733945 0.003679904 0.3967071 0.4171815
-0.060426865 -0.17965178 -0.01320039 -0.24251863 0.0150088435 -0.034183964 0.20209378 0.3836639
0.01636486 0.047020048 0.18919638 -0.21795177 0.46518442 0.105594434 -0.052130196 0.1864625
0.30012816 0.08819218 0.33376944 -0.017914956 -0.11199131 0.3808474 0.06290932 0.21382189
-0.2356995 -0.24510983 0.07007437 0.073547035 -0.17903876 0.29814458 -0.025787976 0.050476614
-0.22377744 0.18477358 0.25344908 0.057020035 -0.21352625 0.4212992 0.093490206 -0.15474196
0.4101702 0.30368504 0.022541529 0.14079972 0.40343854 -0.0056712255 -0.1189122 0.3482898
-0.24631517 -0.03764875 -0.0053928643 -0.27641433 -0.0898175 0.29149494 0.22006224 -0.04334468
-0.042916503 -0.003080233 0.3673249 -0.051603865 -0.04963674 -0.0006544621 -0.45215073 0.089235425
-0.035475615 -0.012874662 0.027748495 0.39329687 -0.015163217 -0.0146833435 0.1349569 -0.0066299886
-0.14333324 -0.27044797 -0.04077454 0.0023603134
00000000: 2573 de3e 410d bbbd 7d54 24bd 9a24 9c3d
00000010: a394 dfbd 13f6 803d 2dad 893e e422 38be
00000020: faa4 46be 54ef c2bc 7d53 b0bd e343 87bd
00000030: 3d80 5a3e f5d4 993d 08ea 8d3e 190d b83e
00000040: 307c b13d ebb1 62be 67fc 33bd f029 a3bd
00000050: 4665 02be 8b2a 713b 311d cb3e d098 d53e
00000060: 2982 77bd a3f6 37be 7346 58bc ce56 78be
00000070: a7e7 753c 7c04 0cbd acf1 4e3e 986f c43e
00000080: 990f 863c 1898 403d b2bc 413e c02e 5fbe
00000090: a72c ee3e e541 d83d 7986 55bd 07f0 3e3e
000000a0: 66aa 993e 1a9e b43d d4e3 aa3e 63c2 92bc
000000b0: b35b e5bd 6efe c23e 9ad6 803d 20f4 5a3e
000000c0: 365b 71be 12fe 7abe 2783 8f3d d49f 963d
000000d0: f055 37be 68a6 983e 4e41 d3bc 91c0 4e3d
000000e0: ea25 65be 4935 3d3e 14c4 813e d78d 693d
000000f0: a0a6 5abe 87b4 d73e cb77 bf3d ad74 1ebe
00000100: d401 d23e 9b7c 9b3e 03a9 b83c cd2d 103e
00000110: 7f8f ce3e b0d5 b9bb 3d88 f3bd 0a53 b23e
00000120: 0b3a 7cbe 9335 1abd a0b6 b0bb 2e86 8dbe
00000130: 3df2 b7bd d33e 953e ff57 613e 318a 31bd
00000140: 37c9 2fbd bcdd 49bb 0212 bc3e 935e 53bd
00000150: e54f 4bbd 3590 2bba 4d80 e7be 10c1 b63d
00000160: e14e 11bd 3ff0 52bc d050 e33c 355e c93e
00000170: 246f 78bc 6892 70bc 2432 0a3e 6040 d9bb
00000180: f3c5 12be 2878 8abe 3403 27bd 7daf 1a3b

weight f4 [1, 100]
0.8106774 -0.58888596 0.07162189 0.7943843 0.028741224 -0.60231906 0.9084982 -0.5892696
-0.61875325 -0.5602494 -0.54104203 -0.579806 1.806412 1.6555909 0.680097 0.8112288
-0.6601573 -0.5702844 -0.028543152 0.08222483 -0.58347386 1.1649672 0.7975832 0.8695257
-0.54823303 -0.61060864 0.09538855 -0.631585 -0.4877253 -0.61853564 0.7880574 0.8491516
-0.5777889 -0.6293869 -0.53720474 -0.6409213 0.88098174 1.186524 -0.51875585 0.9626734
0.8956701 -0.21789868 0.91172296 -0.51019585 -0.5926618 0.70008165 -0.60195476 1.5954641
-0.6058553 -0.57117766 1.4658989 -0.60426235 -0.59836656 0.67030066 1.4752647 -0.5534058
-0.56660634 0.9597032 0.88836646 0.6100796 -0.4977706 0.86965185 -0.37407655 -0.62215894
0.8490008 0.78257823 0.05030836 0.5951886 0.74791956 0.6971007 -0.592537 0.8607926
-0.5671402 0.048896525 0.055219263 -0.6154561 0.061726782 0.69855654 0.40092677 -0.6020231
-0.68123984 -0.58084875 0.8526819 -0.6254735 -0.5777157 -0.5525483 -0.6774923 1.1100166
0.077152774 -0.028997766 0.035388693 0.8449043 -0.51557565 0.048673805 0.9652656 -0.5500023
-0.61200446 -0.5988176 0.29268643 -0.5942697
00000000: 8e88 4f3f 3bc1 16bf 7fae 923d c55c 4b3f
00000010: b772 eb3c 9531 1abf 5793 683f 5fda 16bf
00000020: 9d66 1ebf 816c 0fbf bb81 0abf 2b6e 14bf
00000030: 8238 e73f 67ea d33f d61a 2e3f b1ac 4f3f
00000040: 1200 29bf 29fe 11bf 54d3 e9bc 7e65 a83d
00000050: 8b5e 15bf a51d 953f 6a2e 4c3f 3c99 5e3f
00000060: 0059 0cbf d950 1cbf 125b c33d 8eaf 21bf
00000070: 21b7 f9be 5a58 1ebf 21be 493f 0062 593f
00000080: f9e9 13bf 801f 21bf 4086 09bf 6b13 24bf
00000090: 0588 613f 05e0 973f 2fcd 04bf c471 763f
000000a0: a34a 653f d520 5fbe ad66 693f 329c 02bf
000000b0: afb8 17bf 8d38 333f b519 1abf 2b38 cc3f
000000c0: 5519 1bbf b338 12bf 93a2 bb3f f0b0 1abf
000000d0: 8d2e 19bf d398 2b3f 79d5 bc3f 01ac 0dbf
000000e0: 1d0d 11bf 1caf 753f fc6b 633f 2d2e 1c3f
000000f0: cadb febe 81a1 5e3f f686 bfbe cf45 1fbf
00000100: 1e58 593f 0c57 483f 2410 4e3d 485e 183f
00000110: a877 3f3f 3175 323f 81b0 17bf e75c 5c3f
00000120: 1a30 11bf b947 483d 982d 623d 888e 1dbf
00000130: 39d5 7c3d 9ad4 323f 4646 cd3e 301e 1abf
00000140: bc65 2ebf 81b2 14bf 5c49 5a3f 081f 20bf
00000150: 2de5 13bf ce73 0dbf 2370 2dbf 0615 8e3f
00000160: 4602 9e3d b98c edbc bcf3 103d a64b 583f
00000170: c4fc 03bf 2f5e 473d a51b 773f f3cc 0cbf
00000180: 53ac 1cbf 1c4c 19bf ffda 953e 0f22 18bf

weight f4 [4, 100]
-0.018884143 -0.08228341 0.09747095 0.15192206 -0.028535767 -0.045131996 -0.015990868 0.005541233
0.017774703 0.013889288 -0.13624102 -0.0030867767 -0.13511458 -0.2837184 -0.02628931 -0.08130488
0.05832701 0.04622112 0.06598344 0.02216884 -0.08179029 0.37383768 -0.06986361 -0.08695009
0.07159264 0.11116708 -0.014266925 0.084388785 -0.035177268 0.046614118 -0.14368968 -0.08881648
-0.020970168 0.055033803 0.09328566 0.049600247 0.039200332 -0.047427036 0.06423324 -0.09647818
-0.062153276 0.23019649 0.08360623 -0.14181058 0.09325508 0.041870378 0.08054109 0.05435505
-0.009803286 0.0023922992 -0.07297142 0.0019552894 -0.05736428 -0.050905004 -0.33795643 -0.1011624
0.02007864 0.00815014 0.012145286 0.10781276 9.995023e-05 0.17889908 0.17013048 0.020873653
0.2197477 -0.0889425 0.07360816 -0.024696587 0.059682287 -0.42066514 -0.07275058 0.05905738
0.0742369 -0.026458358 0.09374643 0.0470393 -0.101517044 -0.07388049 0.06755942 -0.051253147
-0.02345217 0.4756849 0.110049896 0.03965676 -0.05515526 -0.109721795 0.15390812 -0.25562415
0.02428521 -0.0007794384 0.018488012 0.059132032 0.07081978 -0.05287516 -0.20274869 -0.047390684
0.034183495 -0.06923409 0.10546604 0.077797554 -0.062090345 0.021097237 -0.034075536 0.015190991
-0.0050721243 0.07805824 -0.13162111 0.036035854 0.030840661 0.0554551 0.04326477 -0.028405538
0.12771714 -0.22551526 0.2755848 0.013396831 -0.10222978 -0.13565615 -0.012706757 -0.089547396
0.10617966 0.5258821 -0.23787783 0.21926552 0.074566014 0.011405746 0.048060652 0.01191436
-0.03506726 0.041095424 -0.10754964 -0.16087602 0.0025573804 -0.04123805 0.24485496 -0.008858391
-0.05282453 0.09737989 0.0068130386 0.05366296 -0.035904016 -0.36225516 0.42248687 -0.14160429
0.028381797 -0.304607 -0.018622478 0.12505168 -0.06290257 -0.019938964 0.16186024 0.1354098
0.010853794 0.25686264 -0.164098 0.005428072 0.13179281 0.13454641 0.22962813 0.092992835
-0.13698304 0.043601923 0.23627625 0.03836568 0.11494568 -0.2923462 0.019270271 0.035299253
-0.17721619 0.056747362 0.052062836 -0.08088606 -0.11228913 0.08357025 -0.08740173 0.083143026
0.0033640142 -0.041638076 -0.5097079 0.07191031 0.10570093 0.8480705 -0.034716528 -0.106816694
-0.06065362 -0.02050719 0.0276431 -0.069839306 0.09682835 -0.0978548 -0.02190225 0.011244388
-0.06073953 0.0021424314 0.115641855 0.0895539 -0.011187552 -0.029820837 0.26136997 -0.055845216
0.17244518 0.16670606 -0.058734145 -0.09908368 -0.021811087 0.076934904 -0.2458807 -0.10832415
0.073566794 0.029359823 0.3535281 -0.03561663 -0.48880857 0.4433469 0.19655412 0.15646158
-0.11570541 0.11177171 -0.062128555 0.099376574 0.012542819 -1.017315 0.12705693 0.10032112
0.08486971 -0.21678197 0.023603026 0.031166656 -0.005333976 0.027249468 0.24053815 0.07744608
0.10970108 -0.09042244 -0.15501592 -0.11638396 -0.1927315 0.25108522 0.0030763852 -0.04715001
0.17345123 -0.0029133952 -0.38690358 0.12811074 0.08903212 0.21281414 -0.045783807 -0.68695176
-0.033539526 -0.00508764 0.07629794 -0.1319291 0.09979875 0.1358315 0.45939776 0.040619455
00000000: ebb2 9abc 3484 a8bd d99e c73d 7591 1b3e
00000010: d7c3 e9bc 54dc 38bd 48ff 82bc 3b93 b53b
00000020: 419c 913c e58f 633c c482 0bbe 854b 4abb
00000030: 7a5b 0abe 8a43 91be ae5c d7bc 2c83 a6bd
00000040: 4ee8 6e3d 5b52 3d3d 5322 873d 6d9b b53c
00000050: ab81 a7bd a767 bf3e a714 8fbd e412 b2bd
00000060: 299f 923d 91ab e33d d2bf 69bc 07d4 ac3d
00000070: 0a16 10bd 72ee 3e3d 6323 13be 6ae5 b5bd
00000080: a1c9 abbc 206b 613d 8d0c bf3d a129 4b3d
00000090: 8790 203d da42 42bd b88c 833d 5a96 c5bd
000000a0: 6f94 7ebd a1b8 6b3e be39 ab3d cb36 11be
000000b0: 85fc be3d 4680 2b3d baf2 a43d 67a3 5e3d
000000c0: f69d 20bc 1fc8 1c3b 0a72 95bd 5024 003b
000000d0: cff6 6abd c481 50bd a008 adbe 3b2e cfbd
000000e0: f67b a43c 2a88 053c 06fd 463c f0cc dc3d
000000f0: 5f9c d138 5231 373e af36 2e3e 39ff aa3c
00000100: 8b05 613e 7c27 b6bd e0bf 963d 7f50 cabc
00000110: 6a75 743d 6c61 d7be 42fe 94bd 27e6 713d
00000120: 8409 983d 33bf d8bc 21fe bf3d 48ac 403d
00000130: 2be8 cfbd a84e 97bd 985c 8a3d d2ee 51bd
00000140: c41e c0bc f98c f33e d761 e13d 206f 223d
00000150: 7bea 61bd d2b5 e0bd 179a 1d3e 2be1 82be
00000160: c7f1 c63c 3a53 4cba 2c74 973c 6e34 723d
00000170: f609 913d a093 58bd 5a9d 4fbe bc1c 42bd
00000180: fe03 0c3d 9aca 8dbd 94fe d73d 5354 9f3d
00000190: 7252 7ebd 1dd4 ac3c ca92 0bbd a2e3 783c
000001a0: 1034 a6bb 00dd 9f3d afc7 06be 559a 133d
000001b0: 8ea5 fc3c e324 633d 6636 313d bbb2 e8bc
000001c0: 48c8 023e 79ed 66be 7319 8d3e 627e 5b3c
000001d0: d95d d1bd 72e9 0abe 0030 50bc a064 b7bd
000001e0: b974 d93d 36a0 063f 3f96 73be 2487 603e
000001f0: 11b6 983d 2bdf 3a3c 3fdb 443d 7334 433c
00000200: b0a2 0fbd ad53 283d fc42 dcbd afbc 24be
00000210: b999 273b 3be9 28bd 42bb 7a3e c922 11bc
00000220: 895e 58bd 1c6f c73d e93f df3b b1cd 5b3d
00000230: 1710 13bd 8279 b9be 3350 d83e b700 11be
00000240: f180 e83c 73f5 9bbe 2b8e 98bc 8c0d 003e
00000250: 10d3 80bd 0a57 a3bc b1be 253e dea8 0a3e
00000260: 1dd4 313c 8083 833e 4e09 28be f8dd b13b
00000270: b2f4 063e 89c6 093e a323 6b3e 0773 be3d
00000280: 4845 0cbe ee97 323d 67f2 713e 5525 1d3d
00000290: a468 eb3d 67ae 95be b0dc 9d3c f395 103d
000002a0: 2978 35be ec6f 683d d73f 553d 97a7 a5bd
000002b0: d8f7 e5bd e126 ab3d aeff b2bd e446 aa3d
000002c0: cb76 5c3b b08c 2abd 387c 02bf b645 933d
000002d0: bb79 d83d 261b 593f eb32 0ebd b6c2 dabd
000002e0: ee6f 78bd b2fe a7bc c873 e23c e907 8fbd
000002f0: f14d c63d 1968 c8bd 596c b3bc 623a 383c
00000300: 03ca 78bd 0968 0c3b a3d5 ec3d 0968 b73d
00000310: fe4b 37bc d44a f4bc 49d2 853e f4bd 64bd
00000320: 7895 303e feb4 2a3e 3793 70bd 62ec cabd
00000330: 2aad b2bc 0c90 9d3d 26c8 7bbe 0dd9 ddbd
00000340: 30aa 963d 0384 f03c a301 b53e bee2 11bd
00000350: 1e45 fabe 5dfe e23e 7c45 493e 7737 203e
00000360: f5f6 ecbd 91e8 e43d 837a 7ebd f285 cb3d
00000370: 6580 4d3c 6137 82bf 361b 023e 2975 cd3d
00000380: 2cd0 ad3d 18fc 5dbe 225b c13c 3751 ff3c
00000390: a2c8 aebb 473a df3c a24f 763e 0d9c 9e3d
000003a0: f6aa e03d 662f b9bd 7ebc 1ebe b75a eebd
000003b0: 685b 45be 3e8e 803e 2e9d 493b 5e20 41bd
000003c0: 339d 313e a9ee 3ebb 3a18 c6be 762f 033e
000003d0: 7956 b63d f3eb 593e cd87 3bbd 12dc 2fbf
000003e0: be60 09bd 38b6 a6bb 1842 9c3d 6c18 07be
000003f0: 4963 cc3d 6a17 0b3e 2f36 eb3e 9660 263d

bias f4 [4]
-0.005106025 -0.058928024 -0.05959704 -0.04199331
00000000: 7150 a7bb 835e 71bd 071c 74bd 2d01 2cbd
